best_models_attn/encoder.pt (torch, 828583 bytes, 9 tensors)

embedding.weight f4 [28, 32]
00000000: 71a5 b83e 763b b7be fe1c 2e3f 6aab 70bf
00000010: 4bc7 c2be c4f7 91bf 5a7c fc3e a397 a7bd
00000020: 7fbe 8b3e d783 0c3f 99c9 1a3f 294d 8e3f
00000030: ca8e be3e 7891 01be 8e5f 94bf cf91 b53e
00000040: 77b1 143f 29d7 88be 538d d23d d0f0 fe3e
00000050: b048 873e 165d 01bf 506f d03e c10c a6bc
00000060: 7f03 0c3f 7ac9 34bf 30be f13d 91ea 9dbe
00000070: 6d3d 08bf ea6b 18bf 393a 0b3f c56e e8be
00000080: 36e5 203f 792a 54bf 3d61 66bf 0fb9 783f
00000090: a661 b03f 6ac7 d6be 0230 7ebe aad4 4abf
000000a0: abd0 51bf af40 d9be a66f 8a3f 0819 783f
000000b0: 56fb 613e 5162 8e3f 94d5 91bd ff26 8abe
000000c0: e172 a03e 0614 783f e082 283f fd5c fcbd
000000d0: fc26 043f 5dbc c73e 0b07 5f3d 6963 bf3f
000000e0: 8524 e23e 1dcc d0bc 183d 1c3e 74c8 7cbf
000000f0: 30f4 6ebf 6eb7 b9be 2f6f 50be bbb0 ee3e
00000100: 2ccc 04be 489a 39be 1570 38bf 600f 0bbf
00000110: c54d b8be 5aa1 4c3f 3b6d eb3e ef47 1abf
00000120: af25 bebf 4ab7 e83e e7ec 1d3f 416c 16bf
00000130: 86ae febe 965a 193f 8e73 c13c c031 85bf
00000140: 0d0d c53f a6f3 d43e 6361 8a3f c79d 1c3f
00000150: 2fae e0bd 138f 1ebf f933 e23e 8790 b8be
00000160: 82e1 163f f34d 953e 6888 8e3e d7ef 64bf
00000170: 28b3 f93d 81e8 4dbe 0e10 6abf 2a21 e93e
00000180: df26 863e 2db8 27bf 8446 8b3e 3735 b6be
00000190: 6288 ebbe 8434 0cbf 4c51 2bbe 3b9d 083f
000001a0: c1a6 cd3e 97d9 16bf 29de 743f f04a 6c3f
000001b0: 0dd2 033f 676e 873e ad85 1fbe d709 cb3f
000001c0: 885a cf3f 464a 9dbe c982 003d a3b0 b5be
000001d0: 1750 29bd c273 93be a7f2 69bf ef17 a4bf
000001e0: 74b7 04bf 981d bdbe 1e96 d83f 5dd3 ee3e
000001f0: 56f1 13bf ed2f 74bf 9011 9d3e 2d4d d3be
00000200: 5f5c 9e3d cba8 cebe f212 3fbf 873a c3be
00000210: f881 413f cfe8 95be 29bd 4ebf 662e 703e
00000220: 616b 813f 26ee e83d 0d40 8f3f db01 473e
00000230: 9e87 0ebe dddc dfbf 629e 1b3e 92b2 b7bf
00000240: 3b5e 1ebf 1082 fabd 7842 41bf cdfb 783f
00000250: 1755 6a3f 2326 373e 7cef 883f 6a65 6abf
00000260: 0513 4b3f 1cbf 2cbe b843 f5be 018c 7c3f
00000270: b3cc 853d 8cee 81bf 2f86 9b3e 06b2 ec3d
00000280: b258 d13f 7edf 2b3f b27b 13bf f470 51bd
00000290: 85cd a8be 9fc9 a73f 1cd4 91bf 8614 953e
000002a0: f433 0a3f 365b 52be 0011 4ebf 42a4 af3e
000002b0: 2dfb a43f 2fa2 f4be 6294 203f e39d 21bf
000002c0: 9c25 a1be d092 09bf 2424 1c3e 1a50 ba3e
000002d0: 06c9 9d3e 3d19 6abe ad44 683f 8131 82be
000002e0: f395 84be df52 803e b97f bbbc e88f 2f3e
000002f0: 7914 32bf 1c5b 8dbf 28f6 13bf 1efd 973e
00000300: c499 5fbf c452 c53e 7524 7a3e 8b3f 613f
00000310: 404b 303e a32f aebe 37f4 013f fb75 e3be
00000320: b9fc f1be 09db 1ebf 754c f93e b73c eebd
00000330: 34a1 afbf 919a 923e 433d 2dbe ee82 c0bd
00000340: 137a 10bf 455c 02bf 9811 1f3f 5994 833f
00000350: 2fb6 60bf 156b 483f 24c8 8b3f f7a7 793d
00000360: 1272 ff3d 22fd 06bc c4dd 4ebf 23c8 edbe
00000370: d3a4 1bbf 0a80 bcbe ce28 76bf 5950 573f
00000380: 9342 0fbf a10b f73e 80d5 0dbf 955e 25be
00000390: 0dce a1bd 46ec 6dbe 40c4 4f3d 4faa 1ebe
000003a0: 3c24 ca3e d329 02bf cb59 1f3e b338 f53e
000003b0: 25eb dbbf c0e6 4f3e 154a 093f 91d7 553f
000003c0: 380e 7bbe af8a 5e3d bc17 83bd 740f a5be
000003d0: a7b2 37bf 5188 90bf 6954 3cbf f0dc 3d3f
000003e0: b65b abbd 2dec 42bd b2f5 a5bf 44d0 733f
000003f0: 54ce 283f 4108 86bf 4af3 2d3f bb3e 4abe
0.36063722 -0.35787553 0.6801299 -0.9401156 -0.38042673 -1.1403737 0.49313623 -0.08183219
0.27293774 0.5488867 0.60463864 1.1117297 0.37218314 -0.12653148 -1.1591661 0.35462806
0.5808329 -0.26726654 0.10280862 0.497931 0.26422644 -0.5053266 0.40709925 -0.020269753
0.54692835 -0.7061993 0.118038535 -0.30843022 -0.5321873 -0.59539664 0.54385716 -0.4539701
0.6284975 -0.8287731 -0.89992124 0.97157377 1.37798 -0.41949016 -0.24823001 -0.7923075
-0.8195903 -0.42432162 1.0815322 0.96913195 0.22068533 1.1123754 -0.07120815 -0.26982877
0.31337646 0.96905553 0.658247 -0.123224236 0.51621985 0.39010897 0.054450076 1.4952213
0.44168487 -0.025487954 0.1525768 -0.9874337 -0.9334135 -0.36272758 -0.20354913 0.4661921
-0.1296851 -0.1812526 -0.72046024 -0.54320335 -0.35996833 0.799337 0.45981774 -0.6026601
-1.485525 0.45452338 0.6168961 -0.5875893 -0.49742526 0.5990385 0.023614671 -1.0405807
1.5394608 0.4159214 1.081097 0.6117825 -0.10970723 -0.61937064 0.44180277 -0.36047766
0.5893785 0.29161033 0.27838445 -0.89428467 0.121923745 -0.20108224 -0.9143075 0.45533115
0.2620153 -0.65515405 0.27202237 -0.35587475 -0.4600249 -0.5476763 -0.16730231 0.53364915
0.40166286 -0.58925766 0.9565149 0.92301846 0.5149239 0.26451418 -0.15578337 1.5862378
1.6199503 -0.3072073 0.031374726 -0.35486326 -0.041336145 -0.28799254 -0.91385883 -1.2819804
-0.5184243 -0.3693664 1.6920812 0.46645632 -0.57790124 -0.9538563 0.30677462 -0.41269818
0.07732462 -0.40363154 -0.74638283 -0.3813059 0.7558894 -0.2927918 -0.80757385 0.234552
1.0110894 0.11373548 1.1191422 0.19434302 -0.13918921 -1.7489277 0.15197137 -1.435137
-0.61862534 -0.12231839 -0.7549205 0.9725922 0.91536087 0.17885642 1.0698085 -0.91560996
0.79325897 -0.16869777 -0.47903228 0.9865113 0.06533184 -1.0150924 0.3037581 0.11557393
1.6355193 0.67137897 -0.5761062 -0.05113311 -0.329693 1.3108405 -1.1392856 0.2911722
0.53985524 -0.20542607 -0.8049469 0.34305006 1.2889153 -0.47779986 0.62726414 -0.6313154
-0.31474006 -0.53739643 0.15248162 0.36389238 0.3081743 -0.2286119 0.9072979 -0.25428393
-0.25895652 0.25063226 -0.022888051 0.1714474 -0.6956249 -1.1043429 -0.5779748 0.296853
-0.87344 0.38539708 0.2442797 0.87987584 0.17216206 -0.3402072 0.5076327 -0.4442595
-0.47263125 -0.6205297 0.48691145 -0.11632674 -1.372107 0.2863355 -0.169179 -0.09399973
-0.5643627 -0.5092204 0.6213622 1.0279647 -0.8777799 0.78288394 1.0920453 0.0609512
0.12472929 -0.0082390625 -0.8080714 -0.46441755 -0.60798377 -0.36816436 -0.96156013 0.84106976
-0.5596096 0.4825106 -0.554039 -0.16149361 -0.07900629 -0.23234662 0.050724268 -0.15494655
0.3948077 -0.5084507 0.15561597 0.4789482 -1.7181135 0.20302868 0.53628665 0.83532053
-0.24517143 0.054331478 -0.06401011 -0.32238352 -0.71756977 -1.12916 -0.735663 0.7416525
-0.08367102 -0.047588516 -1.2965605 0.95239663 0.6593983 -1.0471269 0.67949355 -0.19750492

rnn.weight_ih_l0 f4 [256, 32]
00000000: 1847 6d3d a934 2f3e a34e dc3d 4159 e43d
00000010: ccd3 ed3a 89ea ad3d e306 94bc bd27 353d
00000020: e06b 943c 9fb9 123c 1a4f 41be 806f 143b
00000030: 0d2c 38bd 7d38 2bbd 1d0f 39be 6387 ef3d
00000040: 65d1 d53d 9032 0cbe 0626 14bd 03be b8bd
00000050: 1d50 303e f2f2 8e3d ec2a 24be c1cd 223e
00000060: 3ace 89be 7c81 3ebe 930d ecbb a547 d3bd
00000070: 5fef a8bd cffe 223e 3f49 01be 8608 3b3c
00000080: ac50 11bd 28ef 5538 2e86 36be 093f b7bd
00000090: a71d 093e 32f7 30be 4b99 58be 9b56 a73c
000000a0: 457b c93d 939f 303e 90ab 8a3c 2681 823d
000000b0: 2c9c a33d 4ed9 8ebd 723a b2bd bf83 4e3d
000000c0: 463f a63c a98c 243e e080 45be 535d 263e
000000d0: fdfb 74bd 166f 353d 3225 a3bd 9f1a 03be
000000e0: 5d85 023d 2a05 c8bb c46b 833e 641d 88bd
000000f0: 3e84 0f3e dd23 0cbd fb54 37bc 1c30 083e
00000100: 0a6e 1bbe 7555 393e fe2d 42bd 5181 023e
00000110: 16af 02bd 82ae 1a3c e7a2 cd3d 9984 203c
00000120: f4b4 753b f75e 2ebe d4dc 64bd 5c70 c73c
00000130: 907a 2cbe 0939 dc3d b29a e8bd 798d 063e
00000140: 1e6c 703e abf4 9c3b 4220 503e 1bdf 16bd
00000150: 6e0e 073d d13e ffbc 8345 45be a6a4 1cbd
00000160: 7bd0 bf3c 296d 643d ded4 84be fa60 0d3d
00000170: 673a 06bd 2c17 1c3d 30fd fdbc 1517 44bd
00000180: 28c4 b03c 9b0b 36bd 0eb5 a3bd 5673 a83d
00000190: 0cbd fd3d b57d c6bd 4228 b33d a4fe a8bd
000001a0: fb12 9d3d bc0c 263c 928c ed3d c31e 263e
000001b0: b3cf ae3d 9887 793d 0489 adbd 129d 6a3d
000001c0: aded 943d ab81 a13d b650 c23c c5cc d0bd
000001d0: f826 193d 21ed 463c 2e1c 8abd 86c3 343e
000001e0: ca1c 9bbd d4dd 92bd d2c9 5f3e 1e74 60be
000001f0: b9fd f8bb e0a4 ab3c e18e a53d 32aa 783d
00000200: 7a1d f6bd e916 0bbe 08fd 683d 5abf 0bbc
00000210: 0029 86bd cc7b eb3d 2904 ab3d 0b5f b0bd
00000220: a459 77bd 4bf8 12bc 55c8 603c 0666 aebe
00000230: 9189 a6bd 97b0 0c3d bb9d 203e cc78 9cbd
00000240: d971 4cbb 4946 e1bd aa3d 0a3e 08be 963d
00000250: c3da 47be 2f03 643d 02bc a93d dce1 65bd
00000260: af66 3ebe 91cc 903d 5784 253e 3e8a cebd
00000270: 1a33 bfbd f493 403d 5fa9 20be ee9c 20bd
00000280: c584 02be 3b5a 91bd f3e2 8ebd b363 e7bd
00000290: 5a2b 04be 1567 153b 10a7 c33d 293b 633d
000002a0: 3bd1 843d 0f3c 683d b2f8 1fbd dcda 313d
000002b0: ce69 b1bd 9122 5fbd c305 b03c bb0f 5c3d
000002c0: 7d52 d13c cc0e 81bd 1e3c 823d 7cd2 b4bd
000002d0: 8371 763d 8a8c 9d3d 3358 12be 2e4b 0fbe
000002e0: 6644 4dbc ba6d 013d 3bf0 2c3c 9e25 513d
000002f0: 07df ef3b 9360 bfbd e357 74bb 58e2 abbd
00000300: eac4 03bd e986 1cbd 7a53 673e e497 ccbc
00000310: 2680 01be 94c2 013e 1da7 b13d c7b2 5b3d
00000320: 9bfb 833d c9ff 8abd 5f77 f53d 0adf 53be
00000330: 43d0 7e3d d35c b2bd 3247 893c eb61 11bd
00000340: 71d8 e83d 6a9c a5bd 2a9a e3bb 5e02 f93c
00000350: acea 18bc 161e b4bd c0b8 e03d 39f5 10be
00000360: f532 d9bd 7841 e33a 6f93 133e e2d9 98bd
00000370: d643 e3bc d55f af3d 4ff4 df3d d43d 25bd
00000380: edba 05be 11bb 0dbe 641f f2bd 5526 edbc
00000390: 6f22 15bd 4370 69bd 6294 483d 2448 9b3d
000003a0: edac 913d 44d7 87bd b8db 4f3c bcba c0bd
000003b0: fbb8 a63c 5f9c f03d 77bf 873d 0aba 583e
000003c0: 2994 3c3e e973 cc3d dc17 b83c 292d 433b
000003d0: 3ada 3fbe d9f0 13bd 5b3a bdbd fe21 aa3d
000003e0: abb2 9a3d 9cf8 7b3e 4d57 88bb c529 f23d
000003f0: f6b1 5b3e dbf2 463c 17ce 6fbc ee44 963c
0.05792913 0.17109932 0.10757186 0.11149836 0.0018144785 0.08492 -0.01806969 0.04422735
0.018117845 0.008955388 -0.18877831 0.0022649467 -0.044963885 -0.04180192 -0.18072172 0.11695745
0.104403295 -0.13691163 -0.036169074 -0.09020617 0.17218061 0.06979932 -0.16031998 0.15898801
-0.2691515 -0.18604082 -0.0072037666 -0.103163995 -0.082487814 0.15917514 -0.12625597 0.011415606
-0.035477325 5.100589e-05 -0.17824623 -0.0894757 0.13390218 -0.17281798 -0.21152227 0.020427039
0.09837965 0.17248373 0.01692751 0.06372289 0.07988772 -0.06975041 -0.08702554 0.05041861
0.020293843 0.16069283 -0.19287443 0.16246538 -0.059810627 0.044295393 -0.07966079 -0.12803124
0.031865466 -0.006104131 0.25668156 -0.06646231 0.1401529 -0.03421389 -0.0111896945 0.13299602
-0.15178695 0.18099006 -0.047407143 0.12744643 -0.031905256 0.00944102 0.10040837 0.009797239
0.003749189 -0.17028414 -0.05587466 0.02434557 -0.16843629 0.10753066 -0.11357631 0.13139905
0.23478743 0.004789909 0.20324805 -0.036833864 0.032972746 -0.031157883 -0.19264798 -0.03824296
0.02341484 0.055768166 -0.25943655 0.034516312 -0.03277054 0.038108036 -0.031004518 -0.047873575
0.02157791 -0.04444466 -0.07993518 0.082251236 0.123895735 -0.096919455 0.08747913 -0.08251694
0.07669636 0.010134872 0.11599077 0.16222672 0.08535709 0.060920328 -0.08473399 0.0572787
0.072718956 0.0788606 0.023720127 -0.10195307 0.03739068 0.012141497 -0.06743656 0.17652711
-0.075738505 -0.071712166 0.21854332 -0.21919295 -0.0075986055 0.020952642 0.080838926 0.060709186
-0.12017341 -0.13582958 0.056881934 -0.0085295085 -0.06550789 0.11498222 0.08350403 -0.08611878
-0.060388222 -0.0089703305 0.013719638 -0.34062213 -0.081317075 0.034348097 0.1568517 -0.07640228
-0.0031195788 -0.10999734 0.13500085 0.07360464 -0.19517045 0.0556671 0.08287813 -0.0561236
-0.18593858 0.07070268 0.16163765 -0.10084961 -0.09335919 0.0470161 -0.1568961 -0.03921216
-0.1274596 -0.07097288 -0.06976881 -0.11298313 -0.12907162 0.0022797037 0.09553349 0.05547634
0.0648522 0.0566979 -0.039055534 0.04342161 -0.08662759 -0.054476324 0.021487122 0.05372594
0.025552029 -0.063016504 0.06359123 -0.08829209 0.060166847 0.07692821 -0.14291458 -0.13993523
-0.0125285145 0.031598784 0.010555322 0.051061265 0.007320288 -0.09344592 -0.003728383 -0.08392781
-0.032170214 -0.038214598 0.22590438 -0.02497477 -0.12646541 0.12671882 0.086744525 0.053637292
0.06444474 -0.067870684 0.11985659 -0.20690551 0.062210333 -0.08709111 0.016757581 -0.035493772
0.11369408 -0.08086474 -0.006945868 0.030396637 -0.009333294 -0.08794801 0.10972738 -0.14156045
-0.106054224 0.0017338237 0.1441171 -0.07463433 -0.027742308 0.085632004 0.1093527 -0.040342167
-0.13059588 -0.13840891 -0.118223935 -0.028948942 -0.03640979 -0.056991827 0.048969634 0.07582119
0.07113061 -0.066328555 0.012686662 -0.09410617 0.020351877 0.117485754 0.06628316 0.21164718
0.18415894 0.099830456 0.022472315 0.0029781556 -0.1873559 -0.036118362 -0.09239646 0.08307265
0.075536095 0.24606556 -0.0041607977 0.11824373 0.21454605 0.012142862 -0.014636538 0.018343415

rnn.weight_hh_l0 f4 [256, 256]
00000000: 5323 113b 5b71 0a3d 7a36 19bd 20e6 fa3c
00000010: 6d20 0ebc d267 af3b f39d e43c 962d 813c
00000020: 70d6 a6bc 80ab e9bc 2550 4e3d dbab a3bc
00000030: 4693 473c b2e2 833c 05d0 c73c 5e1d 843d
00000040: bf69 953c c518 b63c a273 e23c 7a58 63bc
00000050: 8c18 26bc 7084 023d f91a 33bc 3e74 2abd
00000060: 648e c43b e0f6 04bd c938 0dbc 9ca9 2f3c
00000070: fe4f 29bb 6b98 4cbd 0063 54bd 953c 22bc
00000080: a5e8 03bc 00bc 823d 9e54 fa3c ed8d 913d
00000090: a58d c63c ed12 2a3d ae32 85bc 26d8 fb3c
000000a0: 5af0 863d c348 4bbd 7fcd b9bc 7936 a2bc
000000b0: c3b8 4f3c 5139 633d 0446 33bc fcda 143c
000000c0: 9c5b 12bc 7866 4d3d 7ff6 48bd 78ed 45bd
000000d0: 530a b83c 2dab a4bc b6a9 743c cab7 1dbd
000000e0: 55a0 453d 435a 04bc 0aa4 17bd 9856 393d
000000f0: aff9 b93b 0430 9d3d cd32 b03c f6c9 06bc
00000100: a70f 06ba 276e c2bc 1ba9 063b 78cd 4c3d
00000110: 3d83 5bbd 04c7 713c 3902 363d a9d1 ff3c
00000120: 6eb3 a4bc 3c7c 09bd 280a 4fbd 503b 4a3d
00000130: 68c8 ecb9 bb60 41bc 50ac 1cbd 6429 823c
00000140: b587 1dba fb1c 433d 6ba6 fab9 d1c0 263d
00000150: fbf6 16bc cc61 88bc 5374 97bd 39f8 49bd
00000160: 9ccf 60bd 24ed 58bd c00f 5e3d a0aa 8bbc
00000170: 57f4 cd3c abe9 f43b d9d5 cebb 58d0 5e3c
00000180: eb0e 9ebd 965d c9bc 4660 43ba 1904 11bc
00000190: 5a2b 093c 7f98 08bd 65d2 77bc d927 2339
000001a0: 99b2 84bc e934 643c 99ca 9fbd 67af b4bc
000001b0: 9a9e 5abc 7272 a23c e51f a23c aac6 01bb
000001c0: 46c3 c53b 3b5b 063d 0853 083b 5b15 87ba
000001d0: 9e5e 59bc 35d1 6a3d b3ab 01bd 2508 213d
000001e0: 9b63 23bd c02e e4bc fcbf 4dbb 5317 f8bc
000001f0: 7827 e23a 7d44 90bb 237e 1cbd d69f a5bc
00000200: 0e41 a0bc a655 80bc 271b 39bc 180a c33d
00000210: 24b8 83bb c25e 12bd 9a8e 15bc 26f1 e33c
00000220: ec24 fdbc b5fa 0f3d 055b cb3b 58f2 8bbb
00000230: 4367 093d 0852 323c ad10 fa3b 7840 e23c
00000240: 0ce9 aebc d196 493d 1e43 2ebd 063c ddb8
00000250: 909c 66bd 7d88 463c 5a3e dbbd 3d5b 043d
00000260: dedc b83c bd50 dcbc 289e aa3b 78be e33c
00000270: 7e88 bcbc 4e20 423d eade c4bd 092a bb3b
00000280: 6944 9d3c b366 a8bc a9d9 84bc 4279 e23c
00000290: 18ce 11bd 4627 223c 9181 1ebc 4786 50bd
000002a0: 2032 0b3c b18b ae3c 890f 5b3c 4d4b fabc
000002b0: bbec a33b 5cac 8e3b 61e7 83bc 0e37 553d
000002c0: a547 07bd 9f50 73bc 8602 ca3c fe5c 2ebd
000002d0: 2233 36bc d238 4a3d 6835 443c d42f 073d
000002e0: 358c bc3c d3d2 87bc b77f 83bc b0e7 11bb
000002f0: 9d2d b2bc 5593 a03b 31d1 c0bb 74ee 473d
00000300: b3d6 463d ea81 05bd fd06 503c 12ac 23bd
00000310: 82d3 04bd 836f c3bc 4642 f1bc 2e96 d3bb
00000320: 3f23 773c f900 cc3c 1ffc 04bd 7a36 4abd
00000330: 3322 613d 7e1f 193d 1241 36bb 038c 733b
00000340: ae5a 8ebc f606 a93b c347 d43a 19a4 953c
00000350: b4eb bf3c f61e f6bc 4b7e 033d 9b5c 24bd
00000360: e022 b7ba ee0f 893d 3b40 323c cd63 feba
00000370: 6dfd 81bb 4a6a b33a e881 3fbc 7df7 2f3d
00000380: 7caa 303d 4c21 43bd 0778 61bd 70c4 01bd
00000390: 6fa4 a73d ef99 0bbd 415b 6cbb 1b44 82bd
000003a0: c8ce 853d fcb4 7a3d 19ca 8abd 979a 983b
000003b0: ef4b 9fbd 57c3 f4bc 55dc 143d 9725 9e3c
000003c0: 19d7 8539 2a64 a1bc 20c3 073b d23a f93b
000003d0: d7b4 743d 6206 0cbd d72e 203d ca47 573c
000003e0: 32cd 903b 73f6 873c f296 d6bc 9b97 4c3d
000003f0: 9d99 633d 07cc 063d a815 f93c 3abd 593d
0.00221463 0.03379951 -0.03740547 0.03062731 -0.008674723 0.0053529525 0.027907347 0.015768807
-0.020365924 -0.02852416 0.0503694 -0.019979408 0.012181109 0.016099308 0.024391184 0.06450914
0.0182389 0.022228608 0.027643029 -0.013876075 -0.010137688 0.031864583 -0.010931724 -0.041614763
0.0059984196 -0.032462 -0.008619496 0.01072159 -0.0025835033 -0.049950045 -0.051852226 -0.009902139
-0.008051072 0.063835144 0.030557927 0.07107148 0.024237463 0.041521955 -0.016259518 0.030742716
0.06588812 -0.049629938 -0.022680996 -0.019801365 0.012678328 0.055474583 -0.010941986 0.009085413
-0.008932974 0.05014655 -0.049063202 -0.04832217 0.02246586 -0.020101154 0.01493304 -0.038505353
0.048248608 -0.008078161 -0.037021674 0.045248598 0.0056755166 0.07675174 0.021508599 -0.008226862
-0.0005114027 -0.023734165 0.0020547572 0.050000638 -0.053591955 0.014756922 0.044435713 0.031227903
-0.02010509 -0.033565745 -0.050546795 0.04937297 -0.00045162742 -0.0118028475 -0.038250268 0.015888877
-0.00060092966 0.04763506 -0.00047807707 0.040711228 -0.009214158 -0.016648196 -0.07395234 -0.04930899
-0.05488549 -0.05296053 0.05421424 -0.017049134 0.025140924 0.0074741445 -0.0063121137 0.013599478
-0.07717689 -0.024580758 -0.00074530055 -0.008851075 0.008372152 -0.033348557 -0.015125846 0.00015559736
-0.016198443 0.01392863 -0.07802314 -0.022056295 -0.013343478 0.019829962 0.0197906 -0.001980225
0.0060352413 0.032801848 0.0020801444 -0.0010306047 -0.013267187 0.05732842 -0.031657886 0.039314408
-0.039889913 -0.027854323 -0.003139495 -0.03028456 0.0017254194 -0.0044026957 -0.03820623 -0.020217817
-0.01956227 -0.01566584 -0.0112979775 0.095234096 -0.004019754 -0.0357349 -0.009128237 0.02782495
-0.030901395 0.035151202 0.0062059187 -0.004270833 0.033545744 0.010883816 0.0076313824 0.027618632
-0.02135136 0.049216095 -0.042544477 -0.000105492814 -0.056301653 0.012117502 -0.10705252 0.032313574
0.022566255 -0.026893968 0.005206842 0.027800784 -0.023014303 0.04739409 -0.0961283 0.005711798
0.01919766 -0.020556783 -0.01621707 0.02764571 -0.035596937 0.009897059 -0.009674446 -0.050909307
0.008495837 0.021306844 0.013370403 -0.030553484 0.0050025857 0.004354043 -0.016101541 0.052054457
-0.03302731 -0.014850765 0.024659406 -0.042569153 -0.011120589 0.049370594 0.011975624 0.033004597
0.023016075 -0.016580021 -0.01605211 -0.002226334 -0.021750266 0.004900376 -0.0058843126 0.04881139
0.048544597 -0.0325946 0.012696979 -0.03995902 -0.032428272 -0.023856884 -0.029450547 -0.006457112
0.015084087 0.024902808 -0.032467004 -0.04936836 0.054964256 0.03738355 -0.002780978 0.003716231
-0.017377224 0.0051583005 0.0016195703 0.018266724 0.023427822 -0.03004406 0.032102864 -0.040127378
-0.0013972186 0.066924915 0.010879572 -0.0019408405 -0.0039669783 0.0013688293 -0.011688687 0.042960633
0.043131337 -0.047639176 -0.055046108 -0.031681478 0.0818566 -0.03408235 -0.0036065134 -0.06360646
0.06533581 0.061207756 -0.06776828 0.0046571004 -0.07778155 -0.029878302 0.036342937 0.019305034
0.00025527997 -0.019701082 0.0020715669 0.007605889 0.059742775 -0.034185775 0.03910717 0.013139674
0.0044189924 0.016597008 -0.026195023 0.04994927 0.05556642 0.03290942 0.030405834 0.053158976

rnn.bias_ih_l0 f4 [256]
00000000: ce75 123c 840c 02bc ba18 833d 216f 483c
00000010: 9cb8 13bd 6dc5 d538 4edf 9a3b dfaa 1d3d
00000020: c7f1 02be 8972 023d 1229 063c 2e68 e6bc
00000030: e83e 043d 1dbc f43d 6b0a 7a3d 5426 91bd
00000040: e5df 743a f15f e53b f90e 02bc 9690 2dbd
00000050: d2d9 ca3d e910 033e 971d 5d3d fc6a 863d
00000060: 308d b73d b70c 7d3c 92c2 fc3c cdac 3d3d
00000070: fef0 f13c 5b07 7e3d 081f a4bc 5dde 48bd
00000080: d391 10bd e43e 6f3b b6cf 8c3d 7435 7fbc
00000090: a33f 803c 98ea 603b 1710 dabc 006b 8b3c
000000a0: 0541 4f3a bb61 913c b5b7 593d 0e10 79bd
000000b0: 84c2 bf3d bb63 343d 2bd5 c33c 99b7 893d
000000c0: 3059 c0bd 176a 00be 9106 0b3d 2103 f53c
000000d0: 74c7 233d c36a cf3d 2770 933d 898d ac39
000000e0: 903a 95bc 31c7 8a3d ac3a b33d 1cda 07be
000000f0: 997e bcbb 388a 423c 567d 863d 3876 17bd
00000100: e14c 1b3d 5679 e3bc eafe 1b3d bacf 2dbd
00000110: 3f26 b5bb 9723 863d 3080 c43d 98fd 3c3b
00000120: 1c9b c53d 6025 523d 818f 413d b50b d73c
00000130: 8a93 3f3c 57c5 f53c b4df dcba 977c 94bc
00000140: 4ea3 ddbb edcc d2bc 3067 d7bc 3efc bfba
00000150: a02f 143d 0c10 2fbd c325 1abc ac0a 083c
00000160: 4880 523d 9872 6bbd c1ca 713c 102f ab3b
00000170: aed7 57bd b6f1 013b 6c1b 833d 001b aa3d
00000180: e5e8 ca3c 0bd4 24bd 6092 843c a810 483c
00000190: 8bed 35bd 1288 bc3d 7bd9 1fbd 7b89 0dbc
000001a0: 97c3 d4bc 999d 783a 5cde 413d a58a f23d
000001b0: 0f7a 14bd 1afa 27be ff9c a7bd e89e f4bc
000001c0: 317d bcbc fa56 e73c af85 aabb f2f2 78bd
000001d0: 09f1 543d 7f23 edbc fffb b63d 68e3 1d3d
000001e0: bbfa 4bbc 50f6 3d3d 16d5 91bd a22b 0c3d
000001f0: 0e17 9c3d 4de3 393d c43b ccbc 4cfe 603d
00000200: 6da8 fc3c e542 f9bd 0d66 983d c9f9 13b9
00000210: e6b6 103d 2464 153d 6f49 b13d b687 8d3d
00000220: 3cc3 17bc 0bd1 85bc c2a6 ee3c afd1 653c
00000230: 885b 74bd 1016 debc 2e8e 9a3c ba03 5fbd
00000240: 5f3a 29bc 976d 77bd 01a6 203d e2a5 f43c
00000250: c068 ef3c 66f5 dbbc fcf5 01bd d3ad 2a3d
00000260: 1a93 d9bc df3b 86bd 635d 21bc e8bc 983d
00000270: 2e24 64bd 55e0 80bc 069d 823b 20f1 fabc
00000280: 4629 53bc 6fba 7c3c ba33 b2bb 45f3 02bd
00000290: 3a29 83bd 67df 39bd 9308 6b3c 59a3 7a3d
000002a0: 883d b6bc 7fac 73bd 66da 703c ab48 1bbc
000002b0: 52da 63bd 3780 9cbd 2840 b83d 163f 673c
000002c0: 5e67 abbc d021 c53d 63b1 0dbd a7dc 3bbc
000002d0: 44c5 b03d f50b 013d 009e 233d da00 4ebd
000002e0: fc1c 9c3d 7a47 84bd 5f20 77bd 99a6 f43d
000002f0: 9398 673d 4936 de3c bcc7 c73c edc0 b4bd
00000300: 7735 123e 3be7 b9bc b10c 773c bbac c33c
00000310: 6763 ee3c f17e 0c3d db4d 853c f595 1e3d
00000320: 2528 91bd 29fd c03c d903 7d3d 4788 b1bc
00000330: bd6e 03bd 5660 8b3d 0824 26bc 295c cd39
00000340: 2a4d b1bc 358b 003d 90f1 ebbc 3d9d 2bbd
00000350: b1f2 db3d 8710 293d 8b74 4b3c e72a 97bd
00000360: 6c29 003d b72e e9bd 6bd7 7ebd d0bf aa3c
00000370: b087 cd3c 072c ddbc 7691 4b3c d907 0cbd
00000380: 13ce 4a3c b382 abbc 4a64 4fbc efe1 273d
00000390: 9b50 45bd 4076 be3c b583 183e 9bf8 1db9
000003a0: 6d4d 65bd ba0b cfbc 65ad 83bd 9272 373d
000003b0: 28fe 9a3d 4879 da3d 85a1 773d a837 a4bd
000003c0: 4211 943c 1c20 8abd 446a 97bc 318c c03c
000003d0: 948b 163d bcd0 a9bc 7a9d 953d 8239 b4bc
000003e0: d518 98bd 4ccb 2e3d f573 d43d 3c85 363d
000003f0: 4b3a 34bd aeed 19bd 76b4 0ebd cf66 88bd
0.00893922 -0.007937554 0.064012006 0.012233526 -0.03606473 0.00010193405 0.004726327 0.038493033
-0.12787543 0.03184751 0.008188503 -0.028125849 0.032286555 0.11949942 0.06104509 -0.07087389
0.0009341224 0.0069999625 -0.00793814 -0.042374216 0.09904827 0.1279942 0.053983297 0.065633744
0.08962476 0.015444926 0.030854497 0.046307374 0.02953386 0.062018733 -0.020034328 -0.049040187
-0.03529532 0.0036505992 0.06875555 -0.015576709 0.015655344 0.0034319516 -0.026619 0.017018795
0.0007906112 0.017746797 0.053153712 -0.060806327 0.09363273 0.044040423 0.023905357 0.067244716
-0.09392011 -0.1254047 0.03394181 0.029908719 0.039985135 0.10127785 0.07199126 0.00032911848
-0.018216401 0.06776274 0.08751425 -0.13266796 -0.0057523963 0.011873774 0.06566875 -0.036977977
0.037915114 -0.027767818 0.038084902 -0.04243443 -0.005528241 0.06549757 0.09594762 0.0028837677
0.096487254 0.051305175 0.047255997 0.0262507 0.011692891 0.030001326 -0.0016851337 -0.018125815
-0.006763852 -0.025732482 -0.02629432 -0.0014647318 0.03617823 -0.042739913 -0.009408417 0.008303326
0.05139187 -0.057482332 0.014757813 0.005224116 -0.052695923 0.001982791 0.06401715 0.08305931
0.024769256 -0.040241282 0.016183078 0.012211002 -0.04441599 0.09205641 -0.039025765 -0.008638735
-0.02597217 0.0009483933 0.0473312 0.118428506 -0.036249217 -0.16404 -0.081842415 -0.029860929
-0.023008915 0.028239716 -0.0052039246 -0.060778566 0.05198768 -0.02894759 0.08934783 0.03854695
-0.0124499155 0.04637748 -0.07120721 0.0342213 0.07621585 0.045382787 -0.024930842 0.054930016
0.03084203 -0.12170962 0.0744134 -0.00014112065 0.035330676 0.036472455 0.086565845 0.069106504
-0.009262856 -0.016335031 0.02913225 0.014027043 -0.059657604 -0.02711013 0.018866625 -0.054446913
-0.010328858 -0.060407247 0.039220814 0.029864255 0.029224753 -0.026850414 -0.03172873 0.041669678
-0.026559401 -0.06554388 -0.009848925 0.07457906 -0.055698566 -0.01573197 0.003986004 -0.030632555
-0.012888258 0.015425309 -0.005438295 -0.03197028 -0.06404348 -0.04537907 0.014345306 0.061190937
-0.022246137 -0.059490677 0.014700508 -0.009477775 -0.05562813 -0.076416425 0.08996612 0.014114162
-0.020923313 0.0962559 -0.034592997 -0.011466182 0.086313754 0.031505544 0.039945602 -0.05029378
0.07622716 -0.064589456 -0.060333606 0.119458385 0.05654199 0.027125495 0.024387233 -0.0882586
0.14278208 -0.022693267 0.015078709 0.023886075 0.029100133 0.03430075 0.016272476 0.03871723
-0.07087735 0.023558216 0.061771248 -0.021671427 -0.03208803 0.06805484 -0.010140426 0.00039169312
-0.02164324 0.03138276 -0.02880171 -0.041898 0.10739649 0.041275527 0.012417923 -0.0738123
0.031289503 -0.11385863 -0.062217157 0.020843416 0.025089115 -0.026998533 0.012424817 -0.03418717
0.0123782335 -0.020936346 -0.012658188 0.04098695 -0.048172574 0.023249745 0.14893992 -0.000150653
-0.055982042 -0.025274146 -0.06429557 0.044786997 0.07568008 0.10667664 0.06045677 -0.08018428
0.018074635 -0.067444056 -0.018483289 0.023504348 0.036754206 -0.020729415 0.07305427 -0.022000078
-0.07426611 0.042674348 0.103736795 0.044560656 -0.044000905 -0.037580185 -0.03484007 -0.06660234

rnn.bias_hh_l0 f4 [256]
00000000: 7de6 f7bb a073 2fbb cab6 da3c f197 123d
00000010: 2677 053d 2332 813d 34b6 1939 2624 d73c
00000020: 59a4 b8bd 780f ab3d b1c0 96bc b35a 0ebd
00000030: 0396 493d 5336 fb3d 6c00 ac3d ca56 27bd
00000040: 00eb 9a3c ca22 cf3b 6237 40bd 7e61 33bd
00000050: 7bc7 463d e9ec f33d fb49 823d 2fbc 573d
00000060: a5dc 3b3d e0fe 833c 354c c33c 4a3a fb3b
00000070: b6cd 37bc 9d2e 9c3c ab5e 22bc 43e5 24bd
00000080: 2177 74bd 79e5 2a3d 096a 4e3c 06c2 163d
00000090: 32f6 0abb e463 593c 8b7f 6bbc 2dc3 95bc
000000a0: 3f55 45bc ce29 1cbc a261 353c ba3e a2bd
000000b0: 035a c43d cd2f a23d 8cd4 e9bc ec27 443c
000000c0: f361 58bd 4e48 e6bd 151d 14bc a055 633b
000000d0: a3fb a13c b4ea dc3d 67c3 be3b daca e8bc
000000e0: c4d2 a73c 44d2 cb3d 504d 8a3d 6c40 0abe
000000f0: c196 35bc 454a 34bc 25ce 633d d107 b83b
00000100: 40e9 ca3c 356a 99bc 143d 0fbc 6df9 a2bd
00000110: 6c93 96bd 7d94 353d 0d9f a23d 905d b63c
00000120: 903c db3d fcf5 863c 99f8 9cbc 2888 ac3c
00000130: 18e4 493d 4d85 183d 0722 d93c e0f6 bdbb
00000140: fb23 8dbd 5a90 a7bc 719b b43b 0a00 383c
00000150: 3aa9 7b38 593d f5bc f696 d13c ffa1 9e3c
00000160: 50e5 8a3d 5955 1dbc 049e 0fbc 156e 1d3c
00000170: b32f bbbb 7bdd 00bd 0645 90bb 71b7 6a3d
00000180: 2540 2f3c 2c9c 053d db45 663d fd26 063d
00000190: 95a1 1ebc 2735 053d 61cd 013d a285 da3c
000001a0: d367 5dbc b199 cd3b 448b 883d 1cee 053e
000001b0: 4afc 50bd 0d44 02be a499 9fbc b8b0 18bd
000001c0: d965 853c fd0a fabb 361b 793c 6e75 babd
000001d0: 254b 303d 9fe9 6bbd 5172 363d 5301 913d
000001e0: 86c3 eb3b 6c30 783d 1495 443a 315a 8a3d
000001f0: 45b2 723d 6f7f 583d 657d 80bd a06d 4d3b
00000200: 63a9 bc3c 13db c9bd 3f1d d53c e14d 68bc
00000210: f02e 483d c35d 173d 4ba5 d63d 8e1a 513d
00000220: c62a 503c 8c4a 573d ad7d 253d e79b 11bd
00000230: 8cef 4ebd 66e8 d0bc 6b4b 37bd 4151 ea3b
00000240: a251 333d fccc 5dbc be6f 843d ca6e bbbc
00000250: 9e5a b43c 95dc 4fbd 2096 dbbb 5327 383d
00000260: d45a 053c 8681 09bd 1891 22bd c263 d83c
00000270: 4e80 25bd 0250 ec3c 9b88 853c 5396 e4bc
00000280: 4ba7 b53b 0cde 6c3c 60d4 0bbb 6359 01bc
00000290: cfa0 a4bd 9878 fcbc dc1d 8a3d c7e9 c5ba
000002a0: e8af 8239 3d3f 22bd b0ea 1bb7 1137 663c
000002b0: 7e11 6abd ffe6 99bd edeb 013e 2d74 483c
000002c0: c1fa 3abd bd15 a03d 2fe4 093c 3e61 8ebc
000002d0: 364f 973c 690f 933d acb0 643d 5da5 d2bb
000002e0: 2c06 553d d2ae 2ebd 752a 20bd 705e ba3d
000002f0: dc9c 693d a48e 803c 6484 3d3d b689 44bd
00000300: ac34 2a3e ac07 aaba 9fb7 b13c 4522 c6b9
00000310: 1dfc 453d 30fb 323d 6cd3 023c 6ee4 1f3d
00000320: 2e93 95bd 9be7 1e3d 1c06 8d3d e011 e9bb
00000330: e597 19bd dbdf 913d 22a7 5cbd 4325 ec3c
00000340: 34b7 07bb a5a6 d93c aa82 cbbc 4fe2 38bc
00000350: 4f97 df3d e98b 1a3d 534f 1cb9 0a05 bebd
00000360: 5b4e 5b3d f8e8 f1bd 1943 8dbd 124a 9c3c
00000370: b841 8d3c a2db 71bd b20a da3b ce3c 04bc
00000380: b406 083d bee5 5f3c e0e7 313d 3ba8 803d
00000390: cf68 113c 1d05 fd3a b4cf 0d3e bc2b 603d
000003a0: 5a66 1bbd 6067 89bc d97f bfba 3444 ca3c
000003b0: d539 5b3d 15d8 943d 0e7a 8b3b a9d3 a9bd
000003c0: 5070 183c 7e86 8ebd d2d7 44bd 63c5 49bc
000003d0: 3fc7 ae3d 08b9 dfbc 43be c03d 3ef9 883b
000003e0: af2b 8ebd f337 fd3c d9a9 5e3d 0254 3fbc
000003f0: 5a0d acbc 9c57 9e3b b020 02bd 38f8 99bc
-0.007565318 -0.0026771799 0.026698489 0.035789434 0.032584332 0.06308391 0.00014659093 0.026262354
-0.09015722 0.0835256 -0.01840243 -0.034754466 0.049215328 0.12266221 0.08398518 -0.040854253
0.018910885 0.006321286 -0.046927817 -0.043794148 0.048530083 0.119104214 0.06361767 0.0526697
0.04586472 0.016112745 0.02384005 0.0076668607 -0.011218479 0.019065196 -0.009910266 -0.040257704
-0.059683923 0.04172275 0.012598523 0.03680613 -0.0021203873 0.013268445 -0.01437367 -0.018281544
-0.01204425 -0.009531451 0.011070641 -0.079221204 0.09587481 0.079192735 -0.028543733 0.011972409
-0.052827787 -0.1124426 -0.009040137 0.0034688488 0.01977331 0.107869536 0.0058216336 -0.02841704
0.020486243 0.09952214 0.067530274 -0.13501137 -0.011083306 -0.011004035 0.055616517 0.005616166
0.024769425 -0.018727401 -0.0087425895 -0.079577304 -0.07352337 0.044331063 0.07940493 0.022261411
0.10704911 0.016474716 -0.01916151 0.021061018 0.049289793 0.0372365 0.026505483 -0.005797252
-0.06891628 -0.020454574 0.005511694 0.011230478 6.0000668e-05 -0.02993648 0.02558468 0.019364355
0.06782019 -0.009602868 -0.008765701 0.009608765 -0.0057124733 -0.03146122 -0.0044027595 0.05730385
0.010696446 0.03261964 0.056218963 0.032752026 -0.009682079 0.032521393 0.031690005 0.02667505
-0.013513523 0.006274425 0.06667188 0.13079113 -0.05102185 -0.12721272 -0.019482441 -0.037277907
0.016283916 -0.0076307044 0.0152042415 -0.09104429 0.043040413 -0.057595845 0.044542614 0.07080331
0.007194939 0.060593054 0.0007499021 0.06755484 0.059252042 0.052855905 -0.06273917 0.003134586
0.023029989 -0.09856238 0.026014922 -0.014178724 0.048872888 0.036954653 0.10480746 0.051050715
0.0127055105 0.052561328 0.040403057 -0.03554907 -0.05052142 -0.025501441 -0.04474966 0.0071507995
0.043779023 -0.013537642 0.06466626 -0.022879977 0.022015866 -0.050747473 -0.006701246 0.044959377
0.008139331 -0.03357079 -0.039689153 0.026414756 -0.040405564 0.028846744 0.01630049 -0.027903711
0.0055436245 0.014457237 -0.0021336302 -0.007894847 -0.08038484 -0.030819222 0.067439765 -0.0015099578
0.00024926593 -0.03961109 -9.293362e-06 0.014051215 -0.057145588 -0.07514762 0.12687655 0.01223473
-0.045649294 0.07816646 0.00841622 -0.017380353 0.018470388 0.07180674 0.05583255 -0.0064284042
0.05200784 -0.04264719 -0.03910299 0.09100044 0.05703436 0.015693016 0.046268836 -0.047982894
0.16621655 -0.0012972257 0.021694003 -0.00037791036 0.048336137 0.043696582 0.007984977 0.039036207
-0.07303463 0.038795095 0.06885931 -0.0071127266 -0.037498374 0.07122775 -0.053870328 0.028826362
-0.0020708563 0.02656872 -0.024842579 -0.011284425 0.10917532 0.037731085 -0.0001490687 -0.09278305
0.053541522 -0.118120134 -0.068975635 0.019078288 0.017243251 -0.05904735 0.006654107 -0.008071138
0.033209518 0.013665615 0.043434024 0.062820874 0.008875086 0.0019303892 0.13848764 0.05472921
-0.037939407 -0.016772926 -0.0014610245 0.024690725 0.05352195 0.07267777 0.0042564934 -0.08292324
0.009304121 -0.06959246 -0.048057385 -0.012315127 0.08534097 -0.02730991 0.094112895 0.0041801026
-0.06941926 0.030910468 0.054361198 -0.011677744 -0.02100246 0.004832221 -0.031769454 -0.018795118

rnn.weight_ih_l1 f4 [256, 256]
00000000: 4f55 25bb 2c2b af3c 9dee 0d3b efc2 f6bb
00000010: 6806 3b3c 931f 92bd 5d7a e63c 8dae adb9
00000020: 3eff c43a 4a61 69bd fc68 efbc 7dc2 44bd
00000030: e1bf 0fbd 672f 55bd ae35 133c f790 4c3d
00000040: a642 b3bd b6aa b53c 7641 38bb 6c2f a93c
00000050: d8e9 f7bc 42bb 9ebc 0cb3 1abd 1fa6 253c
00000060: 41d2 2ebd 5cf8 45bd b571 b5bc cc0c 43bc
00000070: 8421 50bd cbe5 b93b 41d3 6cbd 8ae7 47bd
00000080: 6603 c23d d9cd 34bc 8fc8 1ebd 08bd e2ba
00000090: 1c7f 32bc b351 283d 7c7f b73c 23d2 623d
000000a0: 404a d33d 5cbc 283c c0c4 81bb ffbd ccbc
000000b0: fbde 03bc fb3f 4d3d e8eb cfbc 7cd1 2fbc
000000c0: 1163 553d db49 ddbc f989 6bbb 1556 233d
000000d0: 5bef 3fbc 93d7 633b e7cf 6cba e943 433c
000000e0: 4e3a 063c 83db af3c 249b e73b c638 ab3d
000000f0: c14e 8f3d 9532 f33b 9544 0ebd 1834 b83b
00000100: c1b1 0cbd b79f f2bc 2e59 a93d 1ca7 f33c
00000110: 552b 64bd be30 96bd 3472 95bc 3b94 7e3d
00000120: d550 453d 45ca 44bd 1922 83ba 39b4 2abd
00000130: 961a 953c ca9f d0bc d6d9 9a3c da9a 6e3d
00000140: 8998 0dbd ae6d 013d 9c77 c5bc cfa4 63bd
00000150: 3fe1 fbbc aa9d acbd d60d e1bd 9829 c93c
00000160: 90c8 16bd e00e 16bb d26d 883d 8609 19bc
00000170: 5068 013d b2f9 e33c 6e1a 06bd fb52 a6bc
00000180: 5bd7 08bd 0f2c f23c 39ac 81bd 9acc be3b
00000190: 2370 e6bc 0f97 a3bd 781e 5cbd 6ae1 a0bc
000001a0: 3d84 943c 5263 14bc 84a2 6ebd 28e7 c0bd
000001b0: f3fd 523d b55b d13c ebc9 913d 91cb 323d
000001c0: 5c0a 6ebd aaa1 12bc b09c db3c f59f 353c
000001d0: 79a0 25bd 94d6 03bc b5e5 c6bc 1eba 45bd
000001e0: e4f2 7a3d 9d51 01bd 33b5 a0bb 6917 45bd
000001f0: 5704 553c bab9 183c 2f7a 7bba 6e5d 0f3d
00000200: ad9f d43c 9068 8ebb c2e9 9ebc 4ded 4e3d
00000210: a92a 4fbc 0e13 f53b cf51 41bc dd34 e239
00000220: d6ad b73c 66c1 7fbc 3f07 43bd fe25 963c
00000230: 787d 3abd dba2 013c 5105 f93c cf98 603c
00000240: 9a1b c4bc c74c 00bd 92f0 a43c 06bf 3f3c
00000250: 0fa6 cfbc 0c7c 6cbd ed4b a1bd d789 24bd
00000260: 2f2e 263d fe57 2f3d 68ca ff3b 9609 f3bc
00000270: 4db4 863d 70ec 513c dcbc 14bd 0baa 71bc
00000280: d478 ec3c 7ea4 fa3c f1e3 7b3c 5669 19bd
00000290: 273d 233d 5d37 3d3c 3afd 0ebc df63 36bc
000002a0: dedb fc3c 3d26 813c ee99 c8bc 010d f83c
000002b0: 4272 6e3d a821 833d 56ff cf3c 9ccb 223d
000002c0: cfe8 3abc 2f58 163d c5ca 4f3c 8ecb 593d
000002d0: 5de4 2c3c 221e 4f3c 146a c23d d54b 6b3d
000002e0: 3bbd aabc 0342 403c 922d 03bd d0c5 bdbd
000002f0: f898 c73c 5756 923d 2804 70bc e731 f23c
00000300: d756 863c bedd 163a 31f4 893d c416 c73a
00000310: 1024 a53c 1844 823b 9afa 55bc 2f44 053d
00000320: b680 54bd 7aef 7dbb 563d f5bd 1b43 75bd
00000330: 7c31 873c f23e 83bd 8571 963a 38fc d83c
00000340: 9f8d f9bb 0fc2 6dbd 1e6f fbbc bd21 633b
00000350: d17f 10bd 2a5e c5bc 1401 a23d 8ebe a93d
00000360: 2e81 33bc ffd1 813d 68f6 efbc da8e eb3c
00000370: 5f41 b03c cc91 393d 4202 b7bd ac89 0e3d
00000380: 60b5 113d 102a ba3c e0af 573d 6969 b63c
00000390: a267 0b3d 2a16 ff3a 280c 1c3c 2335 2c3d
000003a0: 8432 723d 6dd2 2a3d 034a 69bd 0e76 08bc
000003b0: 12b1 a7bd 5159 0e3d 4e20 93bc 3547 373d
000003c0: 9248 03bd dfbc dc3c b0cf 3c3d a3a3 be3c
000003d0: acb0 033d c2b6 50b9 5514 a83c 490f 223c
000003e0: 585b d73b 9c19 40bd e56d 1abd a470 31bb
000003f0: 652b febc 178c b53d ccc8 903d d75e c43d
-0.002522785 0.02138289 0.0021657117 -0.007530562 0.011415102 -0.071349286 0.02813452 -0.00033127182
0.0015029681 -0.056977548 -0.029224865 -0.04803704 -0.0350951 -0.05204716 0.008984966 0.049942937
-0.087529466 0.022176128 -0.002811519 0.020652495 -0.030262873 -0.0193764 -0.03776841 0.010110407
-0.042680983 -0.048332557 -0.022148946 -0.0119049065 -0.050813213 0.0056731454 -0.057818655 -0.048804797
0.094733045 -0.011035406 -0.038765486 -0.0017298767 -0.010894563 0.04109354 0.022399656 0.055376183
0.103168964 0.010298815 -0.003960222 -0.024992941 -0.008048768 0.050109845 -0.025381044 -0.010731097
0.05209643 -0.027012756 -0.0035940392 0.039877016 -0.011714782 0.0034765943 -0.00090336654 0.0119180465
0.008192612 0.021466976 0.0070680548 0.08360438 0.06997443 0.0074218013 -0.034733374 0.0056214444
-0.034349207 -0.029617174 0.08268963 0.02974277 -0.055705387 -0.073335156 -0.018242933 0.062153082
0.04817279 -0.04804446 -0.0010004669 -0.04167578 0.018201154 -0.025466818 0.0189027 0.058253147
-0.034569297 0.03159874 -0.024104886 -0.055577096 -0.030747054 -0.084285095 -0.10988967 0.024555966
-0.036812365 -0.002289705 0.066615716 -0.0093406495 0.03159362 0.027829025 -0.03274005 -0.02030324
-0.033408504 0.029562024 -0.06331677 0.0058227303 -0.028129643 -0.079877965 -0.053739995 -0.019638736
0.018129462 -0.009056883 -0.058260456 -0.094190896 0.051511716 0.025556425 0.07118591 0.043651167
-0.05811535 -0.0089496765 0.026808113 0.0110855 -0.04043624 -0.008046765 -0.024279455 -0.0482732
0.061266795 -0.031571973 -0.004904413 -0.04811803 0.013001523 0.009321624 -0.0009593097 0.03500121
0.025955046 -0.004345961 -0.019398574 0.050519276 -0.012644448 0.007479078 -0.01179929 0.00043145465
0.022421759 -0.015610075 -0.047614332 0.018328663 -0.045529813 0.007912363 0.030398043 0.013708307
-0.023938943 -0.03132322 0.020134244 0.011703258 -0.025347738 -0.057735488 -0.0787581 -0.040170517
0.040571388 0.042808525 0.007806111 -0.029667657 0.065773584 0.012812719 -0.036312923 -0.014750014
0.02886621 0.030596014 0.01537417 -0.03745397 0.03985324 0.011548844 -0.008727366 -0.01113221
0.03086656 0.015765304 -0.024487462 0.030279638 0.058214433 0.06402904 0.025390308 0.03974496
-0.011408045 0.036705192 0.012682621 0.05317264 0.010552493 0.012641462 0.09492889 0.057445366
-0.020842185 0.011734488 -0.03202588 -0.09266245 0.024364933 0.07145374 -0.014649428 0.02956481
0.01639883 0.0005755088 0.06736029 0.001518928 0.020158798 0.0039754026 -0.013060236 0.032535728
-0.05188056 -0.0038747475 -0.119745895 -0.05987845 0.016503088 -0.0640849 0.0011477923 0.026487455
-0.0076157595 -0.058046397 -0.030692633 0.003465756 -0.035278145 -0.024092752 0.07910362 0.082882985
-0.010956092 0.06338882 -0.0292923 0.02875464 0.021515546 0.04530506 -0.089359775 0.034799263
0.035573363 0.022725135 0.05265796 0.02226706 0.03403438 0.0019461561 0.009524383 0.042042863
0.059130207 0.041704584 -0.05695535 -0.008328928 -0.0818807 0.034753148 -0.01795974 0.044745643
-0.03205163 0.02694553 0.046096504 0.023271387 0.03215091 -0.00019904508 0.020517508 0.00989134
0.0065721683 -0.046899423 -0.03770246 -0.0027075196 -0.031026551 0.08864611 0.07069549 0.09588402

rnn.weight_hh_l1 f4 [256, 256]
00000000: 18fb c1bc 0a5d 263c 1fa7 903d 9fa3 9e3d
00000010: bb6d c23b c274 433d 2552 803c eafd 11bd
00000020: 9a56 e3bc e0f7 24bd 7a28 413d 3d03 583c
00000030: f50f f33b 4936 6c3c d1cd ae3d 61e9 3abd
00000040: 9320 8eb8 19be 81bd c843 34bc fa67 a4bd
00000050: ce2b 68bd 6cc9 1ebd b00d 253d 313c e0bc
00000060: cad9 13bd 7804 e33b 7021 65bd c888 75bd
00000070: 5aac 583d 3fdf 55b9 173b 863d 2bed 85bd
00000080: 2b8f 323d 27aa c33c ceca 853d f2f7 88bd
00000090: b3e0 46ba 7d7d 403d e660 a83c ac84 99bc
000000a0: 2138 fbbd 53e0 4f3d 55bf fc3c 6b73 793d
000000b0: fa2f 5a3d b2f5 bebc ad31 8bbc b8c7 b63c
000000c0: 3f37 9a3d d194 eabc a327 b03d 0523 48bd
000000d0: 8f66 8abd a110 81bc 096d 39bd d087 84bc
000000e0: 60cc dcbc c9d7 8b3d 7bc7 2c3d 7a6d e53c
000000f0: e7d0 9e3d 3dc1 91bc 9503 513c 27fd 8fbd
00000100: 4663 ccbc da0d 9cbb 4277 883c ce5b 0b3c
00000110: 57da 11bd 8319 e13c e0f6 a5bc 7126 96bb
00000120: ddd8 833a a14d 5abd 3066 ea3b 833c 173d
00000130: 98f4 5e3c 4a5a 903d aee4 6cbc 89c3 a23d
00000140: 26ce 493c 3d03 2a3d e28e 6f3c 7308 dd3c
00000150: 7521 bb3c b83e 753c afc0 f93c 68e2 dcbd
00000160: 271f 913d 16c5 c1bc fd83 45bc ddd4 bfbd
00000170: a14a 883c 6d8a f13c 0778 92bd 42ad c03d
00000180: 35ca a23c 7d3b 95bd c5d3 5c3d 97b6 4f3d
00000190: 00fb 71bc 3a43 713d 831d 623d 6c8d 9dbd
000001a0: 02e1 d03b 2449 0cbc b30b 023d baf5 093d
000001b0: 7b65 18bd 9d7e dbbc 47af 6ebd ee60 2c3d
000001c0: 15b5 523d 949c 0fbd e381 873d 1c44 bebc
000001d0: e1c7 c7bc 91df 04bd 3bbf 1bbb 32de 41bc
000001e0: f2f3 11bd aebe 67bc 7051 fe3c d3e0 10bc
000001f0: fd34 34bc b67a ee3c fd0e 023d d350 32bd
00000200: d923 9abc 06da 6fbd 4ec7 d3bc 3ffd bc3c
00000210: 3f7d 91bc 3adc 55bd aad9 42bd be2d 943c
00000220: a485 46bd 1787 1ebd cd7a b53a 61c1 ddbc
00000230: 8dda 3cb8 c260 333c 1950 3ebc 90a4 073d
00000240: 6f5d 1abd 39d0 9c3d 88dc d0bb 1caa b73d
00000250: bf87 f6bc 6776 9e3d aafe 583d 130a 743c
00000260: a0e4 bdbd 77ed 0abd 9a1c 873c aa46 b33c
00000270: be5a 2fbb af5b 35bc 4883 6d3d 9935 43bd
00000280: 5f00 e1bc 9f22 21bd a916 19bd 45dd c03d
00000290: 00a4 ae3c 37ee adbc f6e1 d6bb 192c 8cb9
000002a0: 5631 e1bb e2fd 553d 8f22 9fbc 2446 5d3d
000002b0: 59cc 62bd 1cf2 923d c25b 273d 834b b33d
000002c0: 777b e6bc 571a 69bd 8463 43bd 8fbb 26bd
000002d0: 35b2 3d3d fe19 51bd 1f09 343b d752 893c
000002e0: e63d 173d c788 ca3c 9ffc eabc e911 013c
000002f0: 88e7 03bc 6e29 0cbc 4b0b e8bc 1777 52bd
00000300: 71a9 97bc 6818 aabc 48cf 7e3b 7a3c 353d
00000310: c274 f0bc 765f 89ba 2186 f93c ee4c 86bb
00000320: 6952 67bd ee24 81bc 491f 9b3c f0ed 513d
00000330: 7935 f8bc b610 d7bc 3095 f53c 22e6 b2bd
00000340: ec10 233b 0ede 303b 08e6 8dbc 498a 1c3c
00000350: 9006 0ebd 0cc5 4c3d 1f68 47bd 4f44 973d
00000360: 1184 d83c 5233 8b3d 5b90 83bc 4c33 a83c
00000370: 5d4d f1bd 5c6b 303c 009e 47bd d0ec c8bc
00000380: 6ddc 3cbd 51c1 9ebc bb31 38bd 59fc 3bbd
00000390: 9f75 a4bd 65bd 113d 6244 57bd 0b6c 5c3d
000003a0: 898e 253d 8714 95bd 736a 24bc d37e 663c
000003b0: 7757 a43b bf10 043d f3c1 8a3d 1b9c b43d
000003c0: b396 a4bd 64f3 0c3d 6406 73bb 92a6 873a
000003d0: b6ed b23d 36ef b5bd 7b01 9bbc f2eb 58bd
000003e0: a739 983c 41c1 bc3d 9ace b03c 58ba 68bd
000003f0: 14ec 863d ca4c 0d3c 9886 ac3c 0afd 4cbd
-0.023679301 0.010154018 0.07063126 0.07746052 0.005933491 0.04771877 0.01566417 -0.035642542
-0.027751256 -0.040275455 0.047157742 0.013184366 0.0074176737 0.014417239 0.0853535 -0.045632724
-6.777155e-05 -0.063350864 -0.011002488 -0.080276445 -0.0566824 -0.03876631 0.040296257 -0.027372451
-0.03609637 0.006928023 -0.05594009 -0.059944898 0.052898742 -0.00020396429 0.06554239 -0.06539377
0.043593567 0.023884846 0.065328225 -0.06687917 -0.00075865834 0.046994675 0.020554017 -0.01874002
-0.12266565 0.05075104 0.030852953 0.060901087 0.05326841 -0.023310516 -0.01699146 0.02231203
0.075300686 -0.028635414 0.0860131 -0.048861522 -0.06757843 -0.015755 -0.04527 -0.016178042
-0.026952922 0.06828267 0.042182427 0.028006304 0.07754689 -0.017792339 0.012757202 -0.07030707
-0.024949681 -0.0047623934 0.016658429 0.008505775 -0.035608616 0.027477985 -0.02025932 -0.0045822193
0.0010059137 -0.05329669 0.007153295 0.036922943 0.01360812 0.07048471 -0.014458818 0.079474516
0.012317216 0.041506995 0.014621468 0.026981568 0.022843102 0.014968567 0.030487387 -0.10785371
0.0708602 -0.023653548 -0.012055394 -0.09366772 0.016637148 0.029484952 -0.071518 0.09408046
0.01987181 -0.07286737 0.053912897 0.05071124 -0.014769316 0.058902003 0.055203926 -0.0769299
0.0063744793 -0.00856236 0.03174944 0.03368161 -0.037206154 -0.026793772 -0.058272626 0.042084627
0.051442225 -0.035061434 0.06616571 -0.023225836 -0.024387302 -0.032439772 -0.0023765105 -0.011832761
-0.035633035 -0.014144583 0.031044692 -0.008842665 -0.0109989615 0.029111248 0.031752575 -0.04353411
-0.018815922 -0.058557533 -0.025851872 0.023069976 -0.017759917 -0.052211978 -0.047570862 0.018088218
-0.048467293 -0.03870305 0.0013845802 -0.02706975 -4.5026234e-05 0.010948362 -0.011615776 0.033115923
-0.03768676 0.07656903 -0.0063739456 0.08967993 -0.030094026 0.07737427 0.05297724 0.01489498
-0.092721224 -0.03391787 0.01649313 0.021884281 -0.0026756967 -0.011069222 0.057986528 -0.047658537
-0.027465997 -0.039339658 -0.037375126 0.09417204 0.021318436 -0.021231754 -0.0065576984 -0.00026735736
-0.0068723364 0.052244075 -0.019425659 0.05402197 -0.055370662 0.07175085 0.04085899 0.08754637
-0.028135045 -0.056909885 -0.047702327 -0.040706214 0.04631253 -0.05105018 0.0027471257 0.016763134
0.036924265 0.024723424 -0.028684912 0.007877805 -0.008050807 -0.0085547995 -0.028325697 -0.051383104
-0.018513413 -0.020763591 0.0038880873 0.044247128 -0.02935255 -0.001048072 0.030459465 -0.004098526
-0.056475077 -0.01576468 0.018935816 0.051252306 -0.030298935 -0.026253086 0.029978365 -0.087353006
0.0024881912 0.0026987824 -0.017321602 0.009554454 -0.034674227 0.049992606 -0.048683282 0.07386076
0.026430162 0.06796898 -0.016060045 0.020532273 -0.11782334 0.010767784 -0.048734665 -0.024526983
-0.046108652 -0.01937929 -0.0449693 -0.045894954 -0.08030247 0.03558101 -0.05255545 0.053813975
0.040419135 -0.07279306 -0.010035145 0.014068323 0.0050153094 0.032242533 0.06775274 0.08818837
-0.08036556 0.034411803 -0.0037082667 0.0010349324 0.08736746 -0.088835165 -0.018921604 -0.05295939
0.018582178 0.09216548 0.02158289 -0.056818336 0.06587997 0.008624265 0.021060273 -0.050046004
