models/encoder_tam1.pt (torch, 997755 bytes, 5 tensors)

embedding.weight f4 [28, 64]
00000000: 7435 8ebe c321 6fbf ef81 5e3e a732 9dbe
00000010: 6d12 07bf 41ec 92bf af0c 0a40 f70f 08bf
00000020: 9b88 2340 9a65 103f ec9e 1d3d 881c b9bf
00000030: 89d2 1ebf e1eb 423f 6d11 2e3f 3dcd a33e
00000040: d7be 6fbe 6ba7 cebf 8565 09bf 9013 223d
00000050: 295e 213e 92f1 803f a5b0 b43e 5c78 11bf
00000060: 5714 70bf 574e c43e 52d6 48bf 3a46 313f
00000070: 6192 97bf 3d7f 1cbe e808 dc3e 018b af3e
00000080: ec6b 193f 5ca2 3a3f 09bc 9dbf 4127 0d3f
00000090: eb59 713e 7303 9d3e 46ea 74bf aa41 ce3e
000000a0: 64a2 d23d 0e55 24c0 620d 8c3e 896b 60bf
000000b0: be3e ecbe 0435 34bf e632 223e 1c90 4f3f
000000c0: 931c 4ebf e82c a4bf 1fcf e0be 9bf1 a5bf
000000d0: 1bc4 b93f c733 c03f f8df 1d3e 4a5e 14bf
000000e0: 55f8 ce3e d25f 3ebe abc2 74bf 2c71 503f
000000f0: a0f7 febf a2da fd3e 24a5 9abe 9a49 0d3f
00000100: 6241 eebe a45a fb3d 4218 623e 3caa 6ebd
00000110: 4dc3 d03f 0b33 86bf 4d56 7abf 3880 bfbf
00000120: 297e 9f3f d97b 453f ecbe ae3f 31c0 943f
00000130: 294a 0abf f597 6f3f ccf7 3b3e 48ca c4be
00000140: 65c0 6dbe 5e2d 13bf 434d 4fbf e195 b83e
00000150: a85f 2b3e f371 70bf 5f8f 41bf 0ef0 d83e
00000160: 0d1d 54bf 1507 5cbf 3662 f73e cd6a 2a40
00000170: 618e 293f f04d 59bf de7b e5bf 5012 96be
00000180: f71f 053f b15a 763e 1b43 4cbf 6ed5 cebf
00000190: f89f 3c3f e43c efbe f79c 5dbf db99 d5bc
000001a0: a1c3 313d 21bf 66bf f744 1b3f 14e6 24be
000001b0: c073 c4bf a660 90be 61c0 f0be 6cd1 eabf
000001c0: e941 f4be 20b4 3e3f 6dd1 06bf 7bb1 033f
000001d0: 6359 a3bf 90bb 933d e7a2 373f c4b6 69be
000001e0: 1cdd 333e 356f 69bf 40dc 4bbe a70f f9bc
000001f0: a583 b23d 91d1 2a40 c0ee bfbf f227 83be
00000200: a621 413d e083 1a3f 344b 0f3e afaf adbe
00000210: d63b a9bf 119e 883d b8ef e1be 4040 fb3e
00000220: 5f4d db3f 0270 88be 9ca8 853e 6be7 0a40
00000230: ea3e 513f 1ff3 fbbd 8593 8d3e 019e 74be
00000240: bded b83f 9ba4 85bf 80b5 b5be 813f 51be
00000250: ad96 8fbe 1f9e 43bf 6785 d33e 6b3c 373f
00000260: 6b1d f43f 01b2 40bf fb26 f83e f828 efbf
00000270: c890 68bf 4e88 8bbf ede4 cc3e d959 4d3f
00000280: f741 e13e b1c2 073e 52d2 043f c70b 55bf
00000290: cbe6 773e e4a1 d5bc 9d90 053e 6222 0fc0
000002a0: 0d11 bb3e ee46 cfbc d043 b0bf ebd8 103f
000002b0: 7595 ab3e 84a8 72be 316f 943f aaac 12bf
000002c0: 6924 253c 4634 2e3f cef4 1abe 6edb 823f
000002d0: 9261 55bf 9431 753e 0b05 96be b8b5 94bf
000002e0: 611a 05bf 6a31 673e 4908 87be 4ee6 9d3f
000002f0: 8eac 37bf 2c8f 06bf 7200 8d3f c50a 0a3f
00000300: cdf7 07bf 92de f33e b1e5 e3bf c7d3 c8be
00000310: 355b a33d 7529 c2be 6428 1d3e 1793 f83e
00000320: b650 9d3f fec5 bdbe 7e2e d6be 79eb 233f
00000330: 5ac3 563f cd93 9bbf 6dac 63bf 9f27 48bf
00000340: 718a 11c0 9082 c63e 67a9 b83e e53b d73f
00000350: 4097 a0bf 6071 39be b844 8fbf e4dd 393f
00000360: a901 82be 14e3 1abe 584a ef3e c327 0c3f
00000370: a3ea 7c3f a0e7 a63f 6111 d9be ff53 4d3e
00000380: 3f0d b73e 3570 21bf 26c3 093f e573 143f
00000390: 5985 3b3f 4b53 703e d3cd 7a3e 9576 e73e
000003a0: 1bb8 36bf e00d 59be b8a2 bd3f 9f52 b93e
000003b0: 825c 42be c5ad 1e3f 4553 2ebf 4f8a e5bf
000003c0: e563 97bf 3b75 78bf fe2f 283f 7bf0 e33e
000003d0: 1aae 66be 6654 d1be b18b 32bf 4f32 6dbf
000003e0: b687 513f 6b1f f7bf bae4 cf3f 0280 d4be
000003f0: b00c 6f3f 9e83 48bf dd43 2c3e e7c0 3c3f
-0.27775156 -0.9341089 0.21729253 -0.30702707 -0.5276249 -1.1478349 2.1570241 -0.5314936
2.5552127 0.5640503 0.038481638 -1.4461832 -0.6204 0.7614117 0.6799534 0.31992522
-0.23412643 -1.6144842 -0.5367053 0.039569438 0.15758575 1.0073721 0.3529102 -0.5682428
-0.93781036 0.3834102 -0.78452027 0.6924778 -1.1841546 -0.15282913 0.42975545 0.3428574
0.599303 0.7290399 -1.2323009 0.5513802 0.23569457 0.30666694 -0.9566997 0.40284473
0.1028488 -2.5676913 0.2735396 -0.87664086 -0.46141618 -0.70393395 0.15839729 0.8107927
-0.8051235 -1.2826204 -0.4390802 -1.2964357 1.4512972 1.5015801 0.15417469 -0.57956374
0.40423837 -0.1859124 -0.9560954 0.81422687 -1.9919319 0.49580866 -0.30204117 0.5519043
-0.46534258 0.12273148 0.22079566 -0.058267817 1.6309601 -1.0484327 -0.97787935 -1.4961004
1.2460376 0.771421 1.3652015 1.1621152 -0.5401941 0.93591243 0.18356246 -0.38435578
-0.23217924 -0.574911 -0.8097727 0.3605185 0.16735709 -0.9392387 -0.7560939 0.42370647
-0.8285683 -0.85948306 0.48317116 2.6627686 0.6623288 -0.8488455 -1.7928426 -0.29310846
0.520019 0.24058034 -0.79789895 -1.6158884 0.7368159 -0.46726143 -0.86567634 -0.02607434
0.043399457 -0.9013539 0.60652107 -0.16103393 -1.5347824 -0.28198737 -0.47021773 -1.834516
-0.47706535 0.744936 -0.5266331 0.5144269 -1.2761654 0.07213509 0.71732944 -0.22823626
0.17564815 -0.91185313 -0.19908237 -0.030402971 0.087165155 2.669041 -1.4994736 -0.25616413
0.04715123 0.60357475 0.13993531 -0.33923098 -1.3221385 0.06670774 -0.44128203 0.49072456
1.7132987 -0.26647955 0.261052 2.1703746 0.81736624 -0.12302231 0.2765161 -0.23888399
1.4447552 -1.0440859 -0.35490036 -0.20434381 -0.28044644 -0.7641315 0.41312715 0.71576566
1.9071478 -0.7527161 0.4846724 -1.8684378 -0.9084592 -1.0900972 0.40018407 0.8021522
0.4399564 0.13257863 0.51883423 -0.83221096 0.24209134 -0.026078172 0.13043447 -2.2364736
0.36536446 -0.025302377 -1.3770695 0.5658099 0.33512464 -0.23697096 1.1596433 -0.57294714
0.010079482 0.6804851 -0.15132448 1.0223215 -0.83352005 0.23944694 -0.29300722 -1.1617956
-0.51993376 0.22577444 -0.2637351 1.2335908 -0.7174767 -0.5256221 1.1015761 0.53922683
-0.5311249 0.47630745 -1.7804471 -0.39224073 0.07976381 -0.37922254 0.15347439 0.4854972
1.2290256 -0.3706512 -0.41832346 0.6403118 0.8389183 -1.215448 -0.88934976 -0.78185457
-2.2740748 0.38771486 0.36066744 1.6815153 -1.2546158 -0.18109655 -1.1192846 0.72604203
-0.25391892 -0.15125686 0.46736407 0.5474817 0.9879553 1.3039436 -0.42396072 0.20051573
0.35752293 -0.6306184 0.538134 0.5798934 0.7325035 0.23469274 0.24492578 0.45207658
-0.7137467 -0.21196699 1.4815283 0.36195847 -0.18980601 0.619839 -0.6809581 -1.7932833
-1.182736 -0.9705388 0.6569823 0.4451941 -0.22527352 -0.40884703 -0.697444 -0.9265489
0.81847703 -1.9306463 1.6241677 -0.41503912 0.93378735 -0.7832583 0.16822763 0.73731846

cell.weight_ih_l0 f4 [768, 64]
00000000: f8b1 f338 7b63 24bd f7f2 86bd 1ced 6c3c
00000010: ddcc 9e3d e230 44bd 206a 06bc db05 92bd
00000020: 695f db3d 27c2 28bc 24b4 cabc 3fd4 013d
00000030: 5ab2 b1bb 3216 5fbd 6052 da3c 6cac 99bb
00000040: 5e20 8abd fce9 b33b c640 503d 218c fa3d
00000050: b4f5 d93c ccfe c93c 70fd 53bd 995f 3e3d
00000060: ac9d 0abd df18 8fbd da43 243d 49da e93c
00000070: 9614 dd3c cc6f 63bd f721 e4bd 62d5 bbbc
00000080: 4f7b 413c f162 353d 87a9 9a3b fa8f e23c
00000090: 17fa 823d 77e1 9c3c a950 163d 0c97 493d
000000a0: 68a7 92bd f4dd 9ebd 0823 96bc 55ff 60bd
000000b0: f449 04bd b380 7cbd d015 34bd 5900 09bd
000000c0: 99ec 83bd 1f13 903d b060 f83c 0121 933c
000000d0: 4d7b 69bc 2a77 1a3c ba24 3d3c 6853 94bd
000000e0: eadb 473d fcca 8e3c 90a4 313c 5b49 98bd
000000f0: e298 67bd 1bd4 e03d 24fe 06bd b6f0 1e3c
00000100: 3a30 2abd f50a 39bb c258 d6bc 2aa8 543d
00000110: 5bb1 c8ba 76bc 8f3d 8c64 6bbc 08c5 64bc
00000120: 6dfc 9d3d b8a2 95bd 0736 1b3c 69ed 263c
00000130: 2cdc 563d 986e 8dbb 51f5 243d 7513 b2bc
00000140: 38e0 23bd 14bb 61bd d43b ef3b b5ac a03c
00000150: 55f5 29bc a453 d83c ff79 863d 1f1e f3bc
00000160: 3700 1a3d bc9e 5bbd ca62 d7bc 03b1 8cbc
00000170: 0405 d9bd 8aa7 73bd 7807 1c3d 446e 22bc
00000180: c462 b23c 205d 98bc aa6d 4f3d c503 0cbc
00000190: 79cc 373d 2d8a 043d 423b 543c 5b1c 92bc
000001a0: 1f20 853c bd68 81bd 05d5 cfbd cb57 2b3d
000001b0: 294b 06bc ec97 adbb e97b a13d 7fa3 2e3d
000001c0: 0363 c4bd 0d67 643c be39 7d3c 02b2 0e3c
000001d0: 6f6f 0b3b 3a03 9bbc 7f13 343c c448 78bc
000001e0: 59f5 ee3c 02fb 59bb 9870 2abc cd3d 833d
000001f0: b8f9 6c3c 17cb b5bc ce43 5f3d 49d3 2f3c
00000200: b458 153b 1276 69bd 85c1 4b3d 3f89 79bd
00000210: b4cc 55bd 6444 2fbd d678 573b 1ea2 8c3b
00000220: c69f 1c3d 9d8f bc39 1412 12bd 6d37 d23d
00000230: 1960 8d3d 8950 e1bd 7e16 b9bd 71f7 173d
00000240: e790 1bbd 5860 af3d 6254 bb3d c65f 2f3c
00000250: 7400 c53d f667 55bd 88c4 39bd 6922 d8bc
00000260: 6457 d3bc 3206 233d c630 a3bd fbef c4bc
00000270: ff92 433d dc5c 05bd 1748 21bd dab3 553d
00000280: 4c3c b93d 0add e13c c8bd 2abd 1261 763d
00000290: 3b25 a33d 38ed 133d 06e0 7fbd 14f4 893b
000002a0: bde5 3f3b bf49 453d 5d95 19bd c278 303b
000002b0: a419 bbbc d61f 1bbd ef49 7ebb e569 5f3d
000002c0: aded 30bd b909 81bd df33 943b ce98 f1bc
000002d0: ce4c 733d 519f a4bc 14b5 c1bc 8bd0 c2bd
000002e0: a833 5b3c d2bd a9bc d59f 79bc 0c5c af3c
000002f0: eb71 b5bc 8961 c63a cd52 593c b8de 06bc
00000300: f841 92bc 0f00 2fbd abbf 1fbc 9b0f 8dbd
00000310: 486b 32bd e3ec 21bd 33ab 3dbd 4091 31bd
00000320: fd40 bc3d 2fbf 263d 54b7 dcbb 72f4 823d
00000330: bbf0 943c 1d68 b23c 8c3c 62bc a958 3f3d
00000340: 5737 9bbd 5920 62bc ed87 49bd 0d1b 4dbd
00000350: 3bb4 39bd 2d2e 393d efda 4cbd 75cc 143d
00000360: 2d2a 113d 9839 8fbd 7567 8b3d d277 c4bd
00000370: c553 3d3d a347 9fbd b2ae 51bc b6a5 b6bb
00000380: 375f 4b3d 9abc adbd 397b e93c f018 debc
00000390: ab1e 593c f911 7fbc 8f18 033d 50fc ddbb
000003a0: 1679 183d 275d 1cbd 59a0 e3ba 36b6 4a3d
000003b0: b64b 743d dfb3 343c 6f03 5339 e1cf 21bd
000003c0: 855a 6abd d7e3 88bc 0929 123d 757f e53c
000003d0: 89ca a6bb 49de 563d dc15 033d 64d2 66bd
000003e0: bf09 eb3c 4c06 51bc 941b 31bd 6092 af3d
000003f0: 1a52 81bd 053c 693c 622e 3a3c d17a 90bc
0.00011620292 -0.040133934 -0.065893106 0.014460828 0.07753918 -0.04789818 -0.008204013 -0.07130023
0.107115574 -0.010300196 -0.0247441 0.031696554 -0.0054228725 -0.054464526 0.026650608 -0.0046897437
-0.06744455 0.0054905396 0.050843023 0.12233759 0.026606418 0.02465763 -0.05175537 0.046477888
-0.033841774 -0.06987166 0.04010377 0.02854647 0.026987355 -0.05552654 -0.11139291 -0.022928897
0.011809184 0.04428381 0.0047199163 0.027656544 0.06395357 0.019150479 0.036698017 0.049216315
-0.071608365 -0.07757178 -0.018327251 -0.054931004 -0.03229709 -0.061646175 -0.043966115 -0.033447597
-0.06441612 0.07034897 0.030319542 0.017960073 -0.014250589 0.009427825 0.011544401 -0.07242471
0.04879371 0.017430775 0.010842457 -0.074358664 -0.056542285 0.10977956 -0.03295721 0.009700945
-0.0415499 -0.002823529 -0.02616537 0.051918186 -0.0015311645 0.07018368 -0.014367234 -0.013962992
0.07714162 -0.07306427 0.00947333 0.010188439 0.052456066 -0.0043161623 0.040273014 -0.021737793
-0.040008754 -0.055110052 0.0073008332 0.019613603 -0.010373433 0.02640707 0.06566238 -0.029677449
0.03759786 -0.053618178 -0.026292223 -0.01717425 -0.1059666 -0.05948595 0.03809306 -0.009913985
0.02177561 -0.018599093 0.050641693 -0.008545821 0.044872735 0.032358337 0.012953581 -0.017835787
0.016250668 -0.06318805 -0.10148052 0.041831773 -0.0081966305 -0.0052976515 0.07884962 0.04263639
-0.095891975 0.013940585 0.015455661 0.008709433 0.0021276136 -0.018922437 0.010990976 -0.015154067
0.029169725 -0.0033261185 -0.010402821 0.06408272 0.014463834 -0.022191567 0.054508023 0.010731527
0.0022788467 -0.056997366 0.0497451 -0.060921904 -0.052197173 -0.04278983 0.003287842 0.004291787
0.03823831 0.00035965155 -0.035661772 0.10264478 0.06903095 -0.11001689 -0.09037493 0.037101213
-0.037979987 0.08563298 0.09146954 0.0107039865 0.09619227 -0.052101098 -0.045353442 -0.026383596
-0.025798507 0.03980083 -0.07968287 -0.024040213 0.04774761 -0.03255926 -0.03937539 0.052173473
0.09044704 0.02757122 -0.041684896 0.060151167 0.079660855 0.0361149 -0.062469505 0.0042100046
0.0029281222 0.048166033 -0.03749596 0.0026927446 -0.022839375 -0.037872158 -0.0038801392 0.05454435
-0.043195415 -0.063006826 0.004522785 -0.029491808 0.05939942 -0.0200955 -0.023645915 -0.09512433
0.013379015 -0.020720396 -0.015235861 0.021406196 -0.022149047 0.0015135269 0.01326437 -0.008231811
-0.017853722 -0.042724665 -0.009750287 -0.06887742 -0.043559343 -0.039532553 -0.046305846 -0.04335141
0.09192083 0.04070967 -0.0067357216 0.063942805 0.018181195 0.02177816 -0.013808381 0.046715412
-0.075789146 -0.013801658 -0.049201895 -0.050074626 -0.045337897 0.045210052 -0.05001348 0.036327798
0.035440613 -0.06993407 0.06806842 -0.095931664 0.046222467 -0.077773355 -0.012797998 -0.0055739535
0.04965135 -0.084832385 0.02850114 -0.0271115 0.013251941 -0.01556825 0.032005843 -0.0067744628
0.03722485 -0.038174774 -0.0017366513 0.049490176 0.059642516 0.011029213 0.00020123807 -0.03950489
-0.057215232 -0.016710205 0.035683665 0.028014878 -0.005090062 0.05245808 0.03200327 -0.056352988
0.02869117 -0.012757849 -0.04323919 0.08572841 -0.06314488 0.014235501 0.011363598 -0.017636688

cell.weight_hh_l0 f4 [768, 256]
00000000: b52c 93bc 4ca2 68bd df64 823c fa4c 133d
00000010: 3977 8fbc e48c 323d c095 2bbd 7cfd 7e3c
00000020: 022c 86bc 4a6b cd3c 024c 24bd d169 21bd
00000030: 78c5 1c3d 56da 1abd 7eeb f7bc 577a 8c3d
00000040: 2444 06bd 6c12 853d 3f5f 7a3d 542a 8e3c
00000050: fbf3 f6bd de27 c1bb 4059 40bd 1d98 50bc
00000060: 0a0f acbb 02e9 843d 6d47 323d ce73 2f3b
00000070: d66c 65bc f831 8dbd b809 6e3b 822f 4a3c
00000080: 039f c2bc 1172 983d f96a 463d 50e6 8b3d
00000090: 15b1 3f3c 3d28 393c 1020 a0bd 0ae1 67bc
000000a0: 5bc7 063d 486d 93bc 47ab 1abd 8017 263d
000000b0: 8cf0 76bd eb9c 45bd e459 59bc 97ea 17bd
000000c0: 8d8b 143c d850 d83a 528c 46bd 2eea 3e3c
000000d0: 54d4 5f3c feb0 af3b 11c8 0abc 5550 183d
000000e0: 7509 dfbc 48b8 7e3d d59c b73a 9032 013c
000000f0: cb83 ecbc 1ce2 013d 1f1a db3c cd50 1c3d
00000100: cc6b 7e3c 69ea 0c3d 36c8 993d 5ac5 e53b
00000110: 9d39 66bd 521c c53c 0daa 06bd 7379 d0bc
00000120: ff41 99bc 0932 c0bd 19c9 cbbc 21da 183d
00000130: 5dcd 323a c0cf c6ba 4538 4e3d 58e5 373c
00000140: f30f f83b 85b0 ca3c 243e a53c 8f2e 4bbd
00000150: 7310 25bc 3585 a3bc 7cad 1bbd 48b6 2f3b
00000160: 5a97 10bc 51b7 9fbd 0c1f e03c 60d9 703c
00000170: acc1 cdbc 6050 e73c 79bd 4ebd 44fc 6ebd
00000180: 8d2c 343d 169a d03c 245d 333d e70d 6bbd
00000190: 05ef 793c 751e 01bc bee6 fa3b 075c 85bb
000001a0: 1193 a43d a069 abbd 05d4 963d ece5 a8bc
000001b0: 139e fabc 3106 373d 3729 b13c 27c6 17bd
000001c0: 37e5 03bd 8fb3 843d e229 fe3c 69d7 91bc
000001d0: 5ced 32bb 6fbd b43d ef47 2abd b00e 98bd
000001e0: 6b8f 35bc a5c5 a7bc be05 943d 475c 6ebd
000001f0: c889 76bd f6b8 90bd fe9d 993d 3bc2 f6bb
00000200: f990 833d c618 b9bd 46ca b03c b03a 913c
00000210: a759 a53c 4ec2 48bd e953 93bc 805d c7bc
00000220: a5f6 78bd 6459 8abc 00f2 58bd dc2e 003d
00000230: 23a2 13bd a8f2 3dbd 98b6 8e3c e919 92bd
00000240: 8c0b 2abd 5b73 18bd ebd0 0dbd 5ef0 4ebb
00000250: e73d f43c 3f1a 7cbc 0640 893b 7e5a 953c
00000260: db39 c0bc cb41 f9bb 9c70 543c 15ba d5bc
00000270: a4ec 5bbc 360d fcbc 27a4 6bbb 418f b83c
00000280: 18a5 583d 8713 9c3d acea 5abb 1401 5c3d
00000290: 4296 1539 ed4e 773c 6e34 fcbc 4e86 c1bc
000002a0: a6e2 08bd 361a dcbc bf39 533c 454c a0bc
000002b0: d389 533c d598 dd3c c40a 15bd b310 0a3a
000002c0: 9e2b c3bc 597f 813c 4524 9f3d 52c6 17bd
000002d0: 7dc5 21bd e365 743c 80dd 1b3c 4792 a33c
000002e0: d977 e0bc b929 2a3d d83d 9d3b f4e9 01bd
000002f0: 4dc8 b43b a269 5abc 8a35 ddba d4f2 583a
00000300: 8935 8d3d 7e1b 3bbd 386d a23d bd3f 313d
00000310: 87aa 633c 36c5 9bbd 18b3 223b da1a 85bd
00000320: 6ed2 0f3d 6136 023d e985 82bd 111e fe3c
00000330: 1adf ad3c f76b a13c 67da 033d fc65 113d
00000340: df3e 113d 8ab6 4cbd 4068 9abd 2c27 e83c
00000350: 7a3d 01bc 4b93 a8bb fb7e d83c e5fc 27bd
00000360: 3532 aabc fd6f 80bc f11c 37bd 713a a43c
00000370: 3c58 3bbc 318f 85bd 6ba7 0e3c 05f2 2cbd
00000380: 3cb2 243d bcf5 88bb f844 80bd dc60 7dbd
00000390: 7300 4f3c ce00 953d 73dc ad3b 26df 0abd
000003a0: f604 8e3a d800 fbbc 316b 3fbc e851 65bc
000003b0: 7569 c3bc fd84 65bc 77b0 0d3d 3d5c 9f3c
000003c0: 1870 943c 8bd3 33bd c124 5c3d 6026 fdba
000003d0: cbd7 c93b 09ef 173d 2efc 1bbd 34e2 0fbd
000003e0: 1767 913c 6f24 d43b 53a0 19bd 060a 483c
000003f0: b893 293c 125d 623d dda4 b9bd d030 3dbd
-0.017965654 -0.056795403 0.01591724 0.035962082 -0.017512904 0.043591395 -0.04189086 0.015563365
-0.016378406 0.025075573 -0.04011155 -0.039407555 0.03827426 -0.037805878 -0.030263659 0.06859272
-0.032779828 0.06497654 0.06112599 0.017354168 -0.12058254 -0.005894645 -0.046960115 -0.012731579
-0.0052508162 0.06489755 0.04352515 0.0026771906 -0.014002999 -0.068942964 0.003632171 0.012340428
-0.023757463 0.074436314 0.04844186 0.06831038 0.0116999345 0.011301097 -0.078186154 -0.014152775
0.032904964 -0.017996445 -0.037761 0.040549755 -0.060287997 -0.04824535 -0.0132660605 -0.037088957
0.009066475 0.0016503586 -0.048473664 0.0116525125 0.013661463 0.0053616753 -0.008470551 0.037185986
-0.02722619 0.062187463 0.0014008532 0.00788559 -0.028871438 0.031709775 0.026745854 0.038162995
0.01552863 0.03440324 0.0750889 0.0070120515 -0.056207288 0.024061356 -0.032877017 -0.025448537
-0.018708227 -0.093845434 -0.024876164 0.0373174 0.00068207626 -0.0015168115 0.05034663 0.011224113
0.0075702607 0.024742374 0.020171233 -0.04960495 -0.010074723 -0.019960979 -0.038007244 0.002681153
-0.0088251475 -0.07798637 0.027358554 0.014700264 -0.025116764 0.028236568 -0.050473664 -0.058346048
0.0439878 0.025464099 0.043789998 -0.057386305 0.015254741 -0.007880797 0.007656901 -0.0040698084
0.08035863 -0.08369756 0.07364658 -0.020617448 -0.030592954 0.04468364 0.021626098 -0.037054207
-0.03220102 0.064795606 0.03102583 -0.01780291 -0.0027302122 0.08825194 -0.041572507 -0.074246764
-0.011081557 -0.020479986 0.07227658 -0.05819347 -0.060189992 -0.070665285 0.07500838 -0.0075304783
0.06424136 -0.09037928 0.021580826 0.01772818 0.020184351 -0.04901343 -0.017984347 -0.024336576
-0.060782094 -0.016888328 -0.052965164 0.03129469 -0.036043297 -0.046373993 0.017421052 -0.07133848
-0.04151492 -0.037219387 -0.034623068 -0.0031576375 0.029814674 -0.015387117 0.0041885404 0.018231627
-0.023465088 -0.00760672 0.012966301 -0.026089707 -0.013423119 -0.030768018 -0.0035955997 0.022529246
0.05289182 0.07620912 -0.0033404035 0.053711966 0.00014265723 0.015094501 -0.03078672 -0.023623612
-0.033419274 -0.026867967 0.012892186 -0.019567618 0.012911278 0.027050415 -0.03638722 0.00052667706
-0.02382451 0.015807794 0.0777059 -0.037054367 -0.03949498 0.01491687 0.009513259 0.019967211
-0.027400898 0.041543696 0.004798632 -0.031717256 0.005517042 -0.013330849 -0.0016876918 0.00082759303
0.06894977 -0.045680515 0.07930988 0.043273676 0.013895637 -0.076059744 0.0024825986 -0.06499262
0.03511279 0.03179014 -0.063731976 0.031020196 0.021224547 0.019704802 0.032190707 0.03549765
0.03546035 -0.04997877 -0.07539415 0.028338991 -0.007888192 -0.005144512 0.026427737 -0.041012663
-0.020775894 -0.0156784 -0.044705335 0.020047398 -0.011434611 -0.06521452 0.008706908 -0.042222995
0.04020904 -0.0041796844 -0.06263155 -0.06185995 0.012634384 0.07275544 0.0053058206 -0.033904217
0.0010835219 -0.03064005 -0.011683271 -0.013996579 -0.023853997 -0.014008758 0.034592118 0.019453162
0.018119857 -0.043902915 0.05374599 -0.0019313805 0.0061597577 0.037093196 -0.038082294 -0.035127833
0.017749352 0.00647407 -0.037506413 0.012209421 0.01035016 0.05526454 -0.09064648 -0.04618913

cell.bias_ih_l0 f4 [768]
00000000: 6f1c 9f3d 10f8 603d 66d9 093d 74b4 943d
00000010: ed3d 31bc 0674 fc3d a041 883b 0930 7ebb
00000020: e90c a6bc aae0 c53d 3f71 bc3d 15d6 993d
00000030: 31fd 023d 7497 d03c 96e4 f13d b7ca 053e
00000040: 4650 22bd 3cc3 263d a3cb c03d 111d 853d
00000050: 1e73 5c3e d89f 463d 3b0f 133c 58a2 f93b
00000060: b2dd a83d 55f5 b43c 4606 003d 522b 87bc
00000070: 196a 6b3d dc84 593d e1f9 213d 6a81 ca3d
00000080: d5db d23c f06d c73c 0bed ac3d 8b5e acbc
00000090: 84ab b3bc a3a5 4c3d af39 0bbb c9a7 033e
000000a0: c07c 833d a980 0dbb 1e32 59bd c91b 803d
000000b0: 8239 f23c 2e7d 9b3e 5a7b e13c a15d 933d
000000c0: fa96 8f3d 84bd c83d c98a 5e3d 5b15 0a3d
000000d0: cf4d 4e3d 216b 283b 99aa 583d a34d 873d
000000e0: f20e 0dbc 4cd9 50bc 40c7 65bd a6d8 623d
000000f0: 94c5 b73d a3cd 7c3c f8b3 cc3c def3 dabc
00000100: 074c 003e 2edf 4f3d 2cd3 173e cf9a 8439
00000110: edfe d03d a848 2d3d 4087 123c ade1 863c
00000120: 9ee8 603c 2a6f b73d 8914 513c fc33 2f3d
00000130: 003d 263e 44af a43d 3cb5 ed3d 839a 8f3d
00000140: 577d a9bb 253a 45bc 9317 dc3d 6605 923d
00000150: 3118 f43d d9fd 5c3e a98c d63d 43f0 163d
00000160: 8911 153d 772d 4dbc 3426 983b cb1f 8f3d
00000170: 960c 273d ac25 9c3d 4e89 a73d c016 01bd
00000180: 5100 373c e105 a13d 849b e73c ba75 993d
00000190: fe64 903d cd19 203d 9ed8 f13d 4cab b73d
000001a0: 5abc a83c ecad e0bc 9ab4 bcbc 5625 04bc
000001b0: 9041 ab3d 68fa 763d 956f d43c 4f93 ab3b
000001c0: 5937 f13d adc5 eab6 bcef 343c 8a36 32bd
000001d0: 8f94 fc3d c71d b03d 5e8b 88bc 7e9e f33d
000001e0: 4c6a 863d c53f 4a3d 063d e03c 369d bd3c
000001f0: 7504 3dbd 144d 413d d16f 3f3b 1045 033e
00000200: 54e8 a83d e99c 0f3d 3509 663d a5fa e1bc
00000210: 09b2 7d3c aee2 97bc 5e05 2a3d 1371 d4bc
00000220: 6162 af3c 85e8 183d 7281 833d 6a4c 6b3d
00000230: 0cd5 d03c f699 5b3d 7a46 193d 565f a23d
00000240: d3c7 bb3c 70cc c53d 5d25 3c3e ecc1 563d
00000250: 0c04 ee3c 72a1 98bc a680 c03b 4ada fa3d
00000260: a3c1 d23c 78e0 fd3c 643a 3b3c 55e1 0d3d
00000270: 4dbc a73d 570f 1d3d bc59 853e 6148 b33d
00000280: 97dd a93d f246 9e3b 8378 003d e434 903d
00000290: c3d9 473c 8223 423d 56d0 a03d 60f6 53bd
000002a0: 39e9 49bc df05 303d b6dd 843d 86b2 803d
000002b0: 2dfb 523c 03d1 ab3b 2739 063e 5975 193e
000002c0: bd4f bf3d b729 263c 62ce c83c e119 d03c
000002d0: 1236 933d 053a d03d 6b18 93bc 80ba 003e
000002e0: 8b9f 8a3d 2d00 7a3d 4f33 8c3d 72b7 ae3d
000002f0: 76a2 893c 1db7 c73c 50fd 09bd a1fe 2f3c
00000300: 5c07 a73d f494 e03d 733e b43d ac4d 08bb
00000310: 2ff0 c83d 4998 e33c 0870 0dbc ca53 56bd
00000320: 740d 7f3d b8e2 a4bd b31f 2cbb ea8a 1a3e
00000330: 242c cb3d 8e43 b03d 1549 f33c 006d 153e
00000340: 8f59 7a3c a55e 703d 945c 0d3d 92c5 b13c
00000350: 9074 cc3d a9b8 e53d 5c0e 39bd 1ab2 03bd
00000360: f103 6bbd b41a 8cbc f6cf a93d cd3c 9b3d
00000370: 3d88 aabc db4f 853d 91f3 b43c da23 a13b
00000380: 866a b63d 090e ea3a 93b1 5b3d 2b0d 273e
00000390: 1ccd 943d 17f2 f43c 3c60 313d 9bb5 a5bc
000003a0: 11bc 91bd cc6b 8b3d 63d1 963d 51a9 8d3d
000003b0: d01a 3f3e 7c71 b13d 5e26 ad3d 9a9e 333d
000003c0: 40dc 893d 6298 c73d 8dd4 8f3b b597 31bd
000003d0: 07dc 16bb 24fe 6cbc 4a3d 87bd 4589 3f3e
000003e0: 6237 6a3d 5b54 11bd b621 2b3e 8909 953d
000003f0: 0afd 523d 31d1 273d d3ae a43c e572 86bc
0.07769095 0.05492407 0.033654593 0.07260981 -0.010817987 0.12326817 0.0041582137 -0.0038785955
-0.020269828 0.09661992 0.092012875 0.07511536 0.031979743 0.025462843 0.118111774 0.13065611
-0.039627336 0.040713534 0.094138406 0.064996846 0.21528289 0.048492283 0.008975799 0.00761823
0.0824541 0.02208964 0.031255983 -0.016500149 0.05747423 0.05310522 0.039544944 0.09887965
0.02573959 0.024344414 0.0844365 -0.021041175 -0.021932371 0.04996265 -0.00212441 0.12856974
0.064202785 -0.002159158 -0.05302631 0.062552996 0.029568437 0.30368942 0.027524639 0.07195593
0.07011218 0.09801772 0.054331575 0.033711772 0.050367173 0.002569862 0.05289707 0.06606605
-0.00860952 -0.01274712 -0.056098223 0.055382393 0.08973232 0.015429887 0.02498816 -0.026727613
0.12529002 0.05074995 0.1482665 0.00025292343 0.10204873 0.04230562 0.008943379 0.016465032
0.013727335 0.0895675 0.012761244 0.042774186 0.16234207 0.08041242 0.11606833 0.07011893
-0.0051724124 -0.0120377885 0.10746684 0.07129936 0.11918677 0.2158121 0.104760475 0.036850225
0.036393676 -0.012523047 0.004643226 0.06988486 0.040783487 0.07624373 0.08180486 -0.031515837
0.011169509 0.078624494 0.028272398 0.07493158 0.07050513 0.039087106 0.118088946 0.08968219
0.020597626 -0.027426682 -0.023035336 -0.008065542 0.083621144 0.0602974 0.025932113 0.0052360664
0.11778135 -6.996756e-06 0.011043485 -0.043509044 0.12333023 0.085994296 -0.016668018 0.11895464
0.06563243 0.04937722 0.027372848 0.023146253 -0.04614683 0.047192648 0.0029210935 0.12819314
0.08247438 0.03506175 0.056161124 -0.027585337 0.015484341 -0.018540706 0.041509025 -0.025932824
0.021409215 0.037331123 0.06421174 0.05744592 0.025492214 0.053613625 0.037420727 0.0792834
0.022922432 0.09658134 0.18373628 0.052431032 0.029054664 -0.01863167 0.005874711 0.122486666
0.025727099 0.030990824 0.011427496 0.03463872 0.081902124 0.038344707 0.26045024 0.087540396
0.08294218 0.0048302347 0.03136493 0.07041338 0.0121979145 0.047397144 0.07852237 -0.051748633
-0.012323671 0.04297435 0.064876005 0.06284051 0.012877268 0.005243422 0.1310774 0.14986171
0.09341381 0.0101417815 0.024512473 0.025402965 0.071880475 0.10167316 -0.01795598 0.12571144
0.06768712 0.061035324 0.06845724 0.08531083 0.0168011 0.024379307 -0.033688843 0.010741861
0.081557006 0.109659106 0.08800974 -0.002079825 0.098114364 0.027782576 -0.008632667 -0.052326
0.06226869 -0.08051056 -0.0026264011 0.15092054 0.099205285 0.08606635 0.029697934 0.14592361
0.0152801415 0.05868401 0.034512118 0.021700654 0.0998317 0.11216862 -0.04517971 -0.032152273
-0.057376806 -0.017102577 0.082916185 0.07579956 -0.020816917 0.06509372 0.022088798 0.004917604
0.089070365 0.0017856966 0.053636145 0.16313617 0.07265684 0.029900594 0.043304667 -0.020228198
-0.07115949 0.0680767 0.07364156 0.0691706 0.18662572 0.086642236 0.084545836 0.043852426
0.067314625 0.097458616 0.0043893517 -0.04335757 -0.002301933 -0.014464889 -0.06603487 0.18704708
0.057181723 -0.03548084 0.16712078 0.07277209 0.051510848 0.040970985 0.020102894 -0.016412208

cell.bias_hh_l0 f4 [768]
00000000: c663 45bc b240 c63b b6ab c53d 65db 473d
00000010: 33dc 45bd 1383 073e 0a78 21bc a25b 0e3d
00000020: 57dd 52bc 1685 e23d 83de c53d b8fd ef3b
00000030: 14fb 9e3d 1a6e 66bc 3bd7 af3d be93 e93d
00000040: bf05 bf3b df44 d13d bb24 dc3d 0c46 c63c
00000050: b506 613e f41b 3a3d c51a 9c3b cadc b53d
00000060: dda2 a63b 54b0 d33d cf6a ce3c 6d6e 37bd
00000070: a493 61bc 9fe8 a93d 65c4 973d b7b1 edbb
00000080: 8495 b03d 5da3 863b af28 013c bef8 b83d
00000090: 4f4f f83c 4823 0a3d 6b0b 9bbc 88b7 e13d
000000a0: 11a6 a63c 67b3 383c f76d 113d e2ca 2c3d
000000b0: dfd1 3fbc 67c5 4e3e 8b1e 2d3d f666 3a3d
000000c0: 5fbe fabc e083 c63d a934 763d c3c1 d1bc
000000d0: a2aa 9ebb 67ab e1bb 6d66 053d 417b 1a3d
000000e0: eff7 183c 7462 5cbc 95ca 7b3d dc3b ea3d
000000f0: 22b4 8b3d df11 323c 54a0 ae3c 9b73 dc3c
00000100: c899 183e 996d 1c3d 3075 2c3e 1b62 cc39
00000110: 8c2b af3d 1d71 a23d 5e39 9d3b 91b7 013e
00000120: 3983 3d3d feca 233c 625b 213d b3af 233d
00000130: fa4d 0b3e 1903 49bc 9e8b 443d 11b0 143d
00000140: a5de a6bc 2772 a2bc afce d13d 130e a73d
00000150: 3ea5 c83d 00b4 823e 210e f83d 83fb 913d
00000160: 444b 7e3d aa04 183d 5b6f aa3d e625 d83d
00000170: 85fb 8e3d ebf0 ae3d a6d6 f23a a2dc f1ba
00000180: 1135 313d 7d61 533d e51f 5f3d e243 e93c
00000190: 01f0 0e3c acb3 98bc d1d9 f73d 8b18 2f3d
000001a0: aefe 04bb 0341 443a 2190 a13d 605a ad3d
000001b0: ac7e 2b3e 1031 f33d 80fc 2d3d 2dd2 183d
000001c0: b5eb a03d f2fe 6e3c 951d c5bb 66da 323c
000001d0: 8970 a83d 70df 333d 5d15 763d c1f1 b93c
000001e0: 055a 59ba 43f3 b83b 38f7 6abc e23b c6bb
000001f0: 7f7f 963d e4b9 e43c 412b 083b 3fbb bd3d
00000200: 4785 443c e50a 963d dfc9 e93c efdd 3c3d
00000210: c532 8ebd c86d 56bd d9cd 5c3d 480b 0bbd
00000220: b1e4 793d 2355 c23d 1cb8 db3d e72d a13d
00000230: ad79 26bd 3f59 f83d 9f90 80bc caaa 293b
00000240: ed59 1bbd f54e 503d 9621 f13d 1057 373d
00000250: 21fb 213d 2676 c23c 68d9 683d f090 973d
00000260: 5150 02bd 6e22 433c df0a 603d 8ab7 513d
00000270: b5a9 043d 810a d13d 7ced 883e 0992 08bc
00000280: b3bd 913d fbd5 a3bc 12a9 d03d 1c79 3f3c
00000290: 273d 193d eab9 a2bb 40f0 8f3d ced1 ff3b
000002a0: d361 2abd bcfe 923c e871 a93d 3077 983d
000002b0: 41b7 843d 3677 ee3c 16e4 b03d 4f62 5c3d
000002c0: 0ff8 41bc 248d 393d a8f7 103d c74d 9bbb
000002d0: 0975 913c b251 ba3d afbe 403c 7a26 d43d
000002e0: c630 893b fdf2 e33c b724 423c 0c23 c13d
000002f0: 0b5d 97ba 7b23 793d f2fc 4b3d d17c e63c
00000300: 9162 2ab9 f463 9c3c 934f df3d ff6b abbc
00000310: 4526 d93d 6708 23bd a0b0 063d 671f 34bb
00000320: 0e47 5f3c 1337 c0bd f119 5e3c 2f9b 4a3e
00000330: f843 4e3d 15f4 293d af13 39bd afca 3d3e
00000340: d51d 333d 5a03 c1bc 1cea 433d d484 f23d
00000350: ade3 713d 40db 063e ce51 cabc eb92 69bd
00000360: 0e54 38bb 5c93 a5bb 1a95 8b3d fd4d ec3b
00000370: 2068 243d 7749 1b3d c08b 783d c84d ed3d
00000380: 2aa9 813d ad04 813c 00aa 873c b183 153e
00000390: 03a1 e43d bace 5d3b 186a 7ebc ea0d 8e39
000003a0: f88d aebd b0c9 3e3c b67d 8c37 fe18 b93d
000003b0: 9462 bb3d 393e 4b3d 4e7e c13d 20fe 623d
000003c0: 6d13 6cbb 81c5 3d3e 3c06 8f3d 8d1f 1f3d
000003d0: fdca 24bc 4f6f 613d 7f4b 04bd 3fd0 1b3e
000003e0: a389 93bc 33e4 25bd e2bb 373e c0c3 ff3d
000003f0: 22f1 2bbd 8900 8e3d 6047 a63d 8765 893c
-0.012047714 0.0060501928 0.09651892 0.048793215 -0.0483057 0.13233595 -0.00985528 0.034755357
-0.012870154 0.110605404 0.09661581 0.007323947 0.07762733 -0.014064336 0.08585974 0.11405133
0.0058295424 0.10218214 0.10749193 0.024203323 0.21975215 0.045436814 0.0047639334 0.08880003
0.005085333 0.10336366 0.025197415 -0.044783045 -0.01376811 0.08296322 0.07410506 -0.0072538513
0.08622268 0.00410883 0.007883235 0.09031819 0.030311255 0.033725053 -0.018926343 0.11021334
0.020342859 0.011273242 0.03550526 0.04218567 -0.011707752 0.2019249 0.042265456 0.045508347
-0.030608354 0.09693122 0.060108814 -0.025605088 -0.0048421184 -0.006886888 0.032568384 0.0377152
0.009336456 -0.013451207 0.061472494 0.114371985 0.06821467 0.010868519 0.021316685 0.026910594
0.14902413 0.038190458 0.16841578 0.00038983006 0.08553228 0.07931731 0.0047980985 0.12667681
0.04626772 0.009997128 0.03939379 0.03996248 0.13603964 -0.012268805 0.04798471 0.036300723
-0.020369837 -0.019829823 0.102445 0.08156981 0.097971424 0.25527954 0.1211207 0.0712805
0.062083498 0.037113823 0.083220206 0.105541036 0.06981567 0.08542045 0.0018527105 -0.0018452595
0.0432635 0.051606644 0.054473776 0.028474752 0.008724214 -0.018640362 0.12102092 0.042748015
-0.0020293402 0.0007486494 0.078888185 0.08464503 0.1674754 0.11874592 0.04247713 0.037309814
0.078574575 0.014587151 -0.0060154893 0.010916328 0.082245894 0.04391426 0.060078967 0.022698285
-0.0008291307 0.0056442334 -0.014341168 -0.006049619 0.07348537 0.02792067 0.0020777734 0.0926423
0.011994666 0.07326297 0.028538642 0.04611009 -0.06943277 -0.05235079 0.05390725 -0.033946306
0.061009113 0.09488895 0.107284755 0.07870083 -0.040643383 0.12126397 -0.01569396 0.0025889152
-0.037927557 0.05085655 0.11773984 0.044760764 0.039546136 0.023737978 0.05684796 0.074006915
-0.031814877 0.011910064 0.054697867 0.051200427 0.032388408 0.102070816 0.26743686 -0.008335599
0.071162604 -0.019999495 0.101884976 0.01168659 0.037411835 -0.0049660103 0.07028246 0.007806993
-0.0415972 0.017943732 0.08273679 0.07444608 0.064802654 0.029109579 0.08637254 0.053804692
-0.011838927 0.045300618 0.035392433 -0.0047394964 0.017756002 0.090976134 0.0117642125 0.10358901
0.0041867224 0.027825827 0.011849574 0.09430513 -0.0011548115 0.060824852 0.049801774 0.028135689
-0.00016249182 0.01909063 0.109038495 -0.02092552 0.106030025 -0.039802935 0.032883286 -0.0027484538
0.013627781 -0.093855046 0.01355599 0.1978576 0.05035779 0.04149254 -0.045184787 0.18534349
0.043729622 -0.023561168 0.047830686 0.11841741 0.05905502 0.13169575 -0.02469721 -0.057024878
-0.0028126272 -0.005052967 0.06815548 0.0072114454 0.040138364 0.03791186 0.06068015 0.11587101
0.063310936 0.0157493 0.016560555 0.14601018 0.11163523 0.0033845142 -0.015528224 0.00027094717
-0.08523172 0.011644766 1.674784e-05 0.0903797 0.09149662 0.049619887 0.09447919 0.055418134
-0.003602232 0.18532373 0.06983611 0.03884845 -0.010058162 0.055037793 -0.03229856 0.15216158
-0.018009966 -0.04050083 0.17942765 0.12488508 -0.04197801 0.06933696 0.081190825 0.016772045
